layer {
  name: "data"
  type: "Data"
  top: "data"
  top: "label"
  include {
    phase: TRAIN
  }
  transform_param {
    mirror: true
    crop_size: 32
    mean_file: "./mean"
  }
  data_param {
    source: "./train"
    batch_size: 128
    backend: LMDB
  }
  image_data_param {
    shuffle: true
  }
}
layer {
  name: "data"
  type: "Data"
  top: "data"
  top: "label"
  include {
    phase: TEST
  }
  transform_param {
    mirror: false
    crop_size: 32
    mean_file: "./mean"
  }
  data_param {
    source: "./test"
    batch_size: 100
    backend: LMDB
  }
}
layer {
  name: "conv_start"
  type: "Convolution"
  bottom: "data"
  top: "conv_start"
  param {
    lr_mult: 1
    decay_mult: 1
  }
  param {
    lr_mult: 2
    decay_mult: 0
  }
  convolution_param {
    num_output: 16
    pad: 1
    kernel_size: 3
    stride: 1
    weight_filler {
      type: "msra"
    }
    bias_filler {
      type: "constant"
      value: 0
    }
  }
}
layer {
  name: "map16_1_bn_pre"
  type: "BatchNorm"
  bottom: "conv_start"
  top: "conv_start"
  param {
    lr_mult: 0
    decay_mult: 0
  }
  param {
    lr_mult: 0
    decay_mult: 0
  }
  param {
    lr_mult: 0
    decay_mult: 0
  }
  include {
    phase: TRAIN
  }
  batch_norm_param {
    use_global_stats: false
  }
}
layer {
  name: "map16_1_bn_pre"
  type: "BatchNorm"
  bottom: "conv_start"
  top: "conv_start"
  param {
    lr_mult: 0
    decay_mult: 0
  }
  param {
    lr_mult: 0
    decay_mult: 0
  }
  param {
    lr_mult: 0
    decay_mult: 0
  }
  include {
    phase: TEST
  }
  batch_norm_param {
    use_global_stats: true
  }
}
layer {
  name: "map16_1_pre_scale"
  type: "Scale"
  bottom: "conv_start"
  top: "conv_start"
  scale_param {
    bias_term: true
  }
}
layer {
  name: "map16_1_pre_relu"
  type: "ReLU"
  bottom: "conv_start"
  top: "conv_start"
}
layer {
  name: "map16_1_conv1"
  type: "Convolution"
  bottom: "conv_start"
  top: "map16_1_conv1"
  param {
    lr_mult: 1
    decay_mult: 1
  }
  param {
    lr_mult: 2
    decay_mult: 0
  }
  convolution_param {
    num_output: 16
    pad: 0
    kernel_size: 1
    stride: 1
    weight_filler {
      type: "msra"
    }
    bias_filler {
      type: "constant"
      value: 0
    }
  }
}
layer {
  name: "map16_1_bn1"
  type: "BatchNorm"
  bottom: "map16_1_conv1"
  top: "map16_1_conv1"
  param {
    lr_mult: 0
    decay_mult: 0
  }
  param {
    lr_mult: 0
    decay_mult: 0
  }
  param {
    lr_mult: 0
    decay_mult: 0
  }
  include {
    phase: TRAIN
  }
  batch_norm_param {
    use_global_stats: false
  }
}
layer {
  name: "map16_1_bn1"
  type: "BatchNorm"
  bottom: "map16_1_conv1"
  top: "map16_1_conv1"
  param {
    lr_mult: 0
    decay_mult: 0
  }
  param {
    lr_mult: 0
    decay_mult: 0
  }
  param {
    lr_mult: 0
    decay_mult: 0
  }
  include {
    phase: TEST
  }
  batch_norm_param {
    use_global_stats: true
  }
}
layer {
  name: "map16_1_scale1"
  type: "Scale"
  bottom: "map16_1_conv1"
  top: "map16_1_conv1"
  scale_param {
    bias_term: true
  }
}
layer {
  name: "map16_1_relu1"
  type: "ReLU"
  bottom: "map16_1_conv1"
  top: "map16_1_conv1"
}
layer {
  name: "map16_1_conv2"
  type: "Convolution"
  bottom: "map16_1_conv1"
  top: "map16_1_conv2"
  param {
    lr_mult: 1
    decay_mult: 1
  }
  param {
    lr_mult: 2
    decay_mult: 0
  }
  convolution_param {
    num_output: 16
    pad: 1
    kernel_size: 3
    stride: 1
    weight_filler {
      type: "msra"
    }
    bias_filler {
      type: "constant"
      value: 0
    }
  }
}
layer {
  name: "map16_1_bn2"
  type: "BatchNorm"
  bottom: "map16_1_conv2"
  top: "map16_1_conv2"
  param {
    lr_mult: 0
    decay_mult: 0
  }
  param {
    lr_mult: 0
    decay_mult: 0
  }
  param {
    lr_mult: 0
    decay_mult: 0
  }
  include {
    phase: TRAIN
  }
  batch_norm_param {
    use_global_stats: false
  }
}
layer {
  name: "map16_1_bn2"
  type: "BatchNorm"
  bottom: "map16_1_conv2"
  top: "map16_1_conv2"
  param {
    lr_mult: 0
    decay_mult: 0
  }
  param {
    lr_mult: 0
    decay_mult: 0
  }
  param {
    lr_mult: 0
    decay_mult: 0
  }
  include {
    phase: TEST
  }
  batch_norm_param {
    use_global_stats: true
  }
}
layer {
  name: "map16_1_scale2"
  type: "Scale"
  bottom: "map16_1_conv2"
  top: "map16_1_conv2"
  scale_param {
    bias_term: true
  }
}
layer {
  name: "map16_1_relu2"
  type: "ReLU"
  bottom: "map16_1_conv2"
  top: "map16_1_conv2"
}
layer {
  name: "map16_1_conv_end"
  type: "Convolution"
  bottom: "map16_1_conv2"
  top: "map16_1_conv_end"
  param {
    lr_mult: 1
    decay_mult: 1
  }
  param {
    lr_mult: 2
    decay_mult: 0
  }
  convolution_param {
    num_output: 64
    pad: 0
    kernel_size: 1
    stride: 1
    weight_filler {
      type: "msra"
    }
    bias_filler {
      type: "constant"
      value: 0
    }
  }
}
layer {
  name: "Convolution1"
  type: "Convolution"
  bottom: "conv_start"
  top: "Convolution1"
  param {
    lr_mult: 1
    decay_mult: 1
  }
  param {
    lr_mult: 2
    decay_mult: 0
  }
  convolution_param {
    num_output: 64
    pad: 0
    kernel_size: 1
    stride: 1
    weight_filler {
      type: "msra"
    }
    bias_filler {
      type: "constant"
      value: 0
    }
  }
}
layer {
  name: "map16_1_eltsum"
  type: "Eltwise"
  bottom: "Convolution1"
  bottom: "map16_1_conv_end"
  top: "map16_1_eltsum"
  eltwise_param {
    operation: SUM
  }
}
layer {
  name: "map16_2_bn_pre"
  type: "BatchNorm"
  bottom: "map16_1_eltsum"
  top: "map16_2_bn_pre"
  param {
    lr_mult: 0
    decay_mult: 0
  }
  param {
    lr_mult: 0
    decay_mult: 0
  }
  param {
    lr_mult: 0
    decay_mult: 0
  }
  include {
    phase: TRAIN
  }
  batch_norm_param {
    use_global_stats: false
  }
}
layer {
  name: "map16_2_bn_pre"
  type: "BatchNorm"
  bottom: "map16_1_eltsum"
  top: "map16_2_bn_pre"
  param {
    lr_mult: 0
    decay_mult: 0
  }
  param {
    lr_mult: 0
    decay_mult: 0
  }
  param {
    lr_mult: 0
    decay_mult: 0
  }
  include {
    phase: TEST
  }
  batch_norm_param {
    use_global_stats: true
  }
}
layer {
  name: "map16_2_pre_scale"
  type: "Scale"
  bottom: "map16_2_bn_pre"
  top: "map16_2_bn_pre"
  scale_param {
    bias_term: true
  }
}
layer {
  name: "map16_2_pre_relu"
  type: "ReLU"
  bottom: "map16_2_bn_pre"
  top: "map16_2_bn_pre"
}
layer {
  name: "map16_2_conv1"
  type: "Convolution"
  bottom: "map16_2_bn_pre"
  top: "map16_2_conv1"
  param {
    lr_mult: 1
    decay_mult: 1
  }
  param {
    lr_mult: 2
    decay_mult: 0
  }
  convolution_param {
    num_output: 16
    pad: 0
    kernel_size: 1
    stride: 1
    weight_filler {
      type: "msra"
    }
    bias_filler {
      type: "constant"
      value: 0
    }
  }
}
layer {
  name: "map16_2_bn1"
  type: "BatchNorm"
  bottom: "map16_2_conv1"
  top: "map16_2_conv1"
  param {
    lr_mult: 0
    decay_mult: 0
  }
  param {
    lr_mult: 0
    decay_mult: 0
  }
  param {
    lr_mult: 0
    decay_mult: 0
  }
  include {
    phase: TRAIN
  }
  batch_norm_param {
    use_global_stats: false
  }
}
layer {
  name: "map16_2_bn1"
  type: "BatchNorm"
  bottom: "map16_2_conv1"
  top: "map16_2_conv1"
  param {
    lr_mult: 0
    decay_mult: 0
  }
  param {
    lr_mult: 0
    decay_mult: 0
  }
  param {
    lr_mult: 0
    decay_mult: 0
  }
  include {
    phase: TEST
  }
  batch_norm_param {
    use_global_stats: true
  }
}
layer {
  name: "map16_2_scale1"
  type: "Scale"
  bottom: "map16_2_conv1"
  top: "map16_2_conv1"
  scale_param {
    bias_term: true
  }
}
layer {
  name: "map16_2_relu1"
  type: "ReLU"
  bottom: "map16_2_conv1"
  top: "map16_2_conv1"
}
layer {
  name: "map16_2_conv2"
  type: "Convolution"
  bottom: "map16_2_conv1"
  top: "map16_2_conv2"
  param {
    lr_mult: 1
    decay_mult: 1
  }
  param {
    lr_mult: 2
    decay_mult: 0
  }
  convolution_param {
    num_output: 16
    pad: 1
    kernel_size: 3
    stride: 1
    weight_filler {
      type: "msra"
    }
    bias_filler {
      type: "constant"
      value: 0
    }
  }
}
layer {
  name: "map16_2_bn2"
  type: "BatchNorm"
  bottom: "map16_2_conv2"
  top: "map16_2_conv2"
  param {
    lr_mult: 0
    decay_mult: 0
  }
  param {
    lr_mult: 0
    decay_mult: 0
  }
  param {
    lr_mult: 0
    decay_mult: 0
  }
  include {
    phase: TRAIN
  }
  batch_norm_param {
    use_global_stats: false
  }
}
layer {
  name: "map16_2_bn2"
  type: "BatchNorm"
  bottom: "map16_2_conv2"
  top: "map16_2_conv2"
  param {
    lr_mult: 0
    decay_mult: 0
  }
  param {
    lr_mult: 0
    decay_mult: 0
  }
  param {
    lr_mult: 0
    decay_mult: 0
  }
  include {
    phase: TEST
  }
  batch_norm_param {
    use_global_stats: true
  }
}
layer {
  name: "map16_2_scale2"
  type: "Scale"
  bottom: "map16_2_conv2"
  top: "map16_2_conv2"
  scale_param {
    bias_term: true
  }
}
layer {
  name: "map16_2_relu2"
  type: "ReLU"
  bottom: "map16_2_conv2"
  top: "map16_2_conv2"
}
layer {
  name: "map16_2_conv_end"
  type: "Convolution"
  bottom: "map16_2_conv2"
  top: "map16_2_conv_end"
  param {
    lr_mult: 1
    decay_mult: 1
  }
  param {
    lr_mult: 2
    decay_mult: 0
  }
  convolution_param {
    num_output: 64
    pad: 0
    kernel_size: 1
    stride: 1
    weight_filler {
      type: "msra"
    }
    bias_filler {
      type: "constant"
      value: 0
    }
  }
}
layer {
  name: "map16_2_eltsum"
  type: "Eltwise"
  bottom: "map16_1_eltsum"
  bottom: "map16_2_conv_end"
  top: "map16_2_eltsum"
  eltwise_param {
    operation: SUM
  }
}
layer {
  name: "map16_3_bn_pre"
  type: "BatchNorm"
  bottom: "map16_2_eltsum"
  top: "map16_3_bn_pre"
  param {
    lr_mult: 0
    decay_mult: 0
  }
  param {
    lr_mult: 0
    decay_mult: 0
  }
  param {
    lr_mult: 0
    decay_mult: 0
  }
  include {
    phase: TRAIN
  }
  batch_norm_param {
    use_global_stats: false
  }
}
layer {
  name: "map16_3_bn_pre"
  type: "BatchNorm"
  bottom: "map16_2_eltsum"
  top: "map16_3_bn_pre"
  param {
    lr_mult: 0
    decay_mult: 0
  }
  param {
    lr_mult: 0
    decay_mult: 0
  }
  param {
    lr_mult: 0
    decay_mult: 0
  }
  include {
    phase: TEST
  }
  batch_norm_param {
    use_global_stats: true
  }
}
layer {
  name: "map16_3_pre_scale"
  type: "Scale"
  bottom: "map16_3_bn_pre"
  top: "map16_3_bn_pre"
  scale_param {
    bias_term: true
  }
}
layer {
  name: "map16_3_pre_relu"
  type: "ReLU"
  bottom: "map16_3_bn_pre"
  top: "map16_3_bn_pre"
}
layer {
  name: "map16_3_conv1"
  type: "Convolution"
  bottom: "map16_3_bn_pre"
  top: "map16_3_conv1"
  param {
    lr_mult: 1
    decay_mult: 1
  }
  param {
    lr_mult: 2
    decay_mult: 0
  }
  convolution_param {
    num_output: 16
    pad: 0
    kernel_size: 1
    stride: 1
    weight_filler {
      type: "msra"
    }
    bias_filler {
      type: "constant"
      value: 0
    }
  }
}
layer {
  name: "map16_3_bn1"
  type: "BatchNorm"
  bottom: "map16_3_conv1"
  top: "map16_3_conv1"
  param {
    lr_mult: 0
    decay_mult: 0
  }
  param {
    lr_mult: 0
    decay_mult: 0
  }
  param {
    lr_mult: 0
    decay_mult: 0
  }
  include {
    phase: TRAIN
  }
  batch_norm_param {
    use_global_stats: false
  }
}
layer {
  name: "map16_3_bn1"
  type: "BatchNorm"
  bottom: "map16_3_conv1"
  top: "map16_3_conv1"
  param {
    lr_mult: 0
    decay_mult: 0
  }
  param {
    lr_mult: 0
    decay_mult: 0
  }
  param {
    lr_mult: 0
    decay_mult: 0
  }
  include {
    phase: TEST
  }
  batch_norm_param {
    use_global_stats: true
  }
}
layer {
  name: "map16_3_scale1"
  type: "Scale"
  bottom: "map16_3_conv1"
  top: "map16_3_conv1"
  scale_param {
    bias_term: true
  }
}
layer {
  name: "map16_3_relu1"
  type: "ReLU"
  bottom: "map16_3_conv1"
  top: "map16_3_conv1"
}
layer {
  name: "map16_3_conv2"
  type: "Convolution"
  bottom: "map16_3_conv1"
  top: "map16_3_conv2"
  param {
    lr_mult: 1
    decay_mult: 1
  }
  param {
    lr_mult: 2
    decay_mult: 0
  }
  convolution_param {
    num_output: 16
    pad: 1
    kernel_size: 3
    stride: 1
    weight_filler {
      type: "msra"
    }
    bias_filler {
      type: "constant"
      value: 0
    }
  }
}
layer {
  name: "map16_3_bn2"
  type: "BatchNorm"
  bottom: "map16_3_conv2"
  top: "map16_3_conv2"
  param {
    lr_mult: 0
    decay_mult: 0
  }
  param {
    lr_mult: 0
    decay_mult: 0
  }
  param {
    lr_mult: 0
    decay_mult: 0
  }
  include {
    phase: TRAIN
  }
  batch_norm_param {
    use_global_stats: false
  }
}
layer {
  name: "map16_3_bn2"
  type: "BatchNorm"
  bottom: "map16_3_conv2"
  top: "map16_3_conv2"
  param {
    lr_mult: 0
    decay_mult: 0
  }
  param {
    lr_mult: 0
    decay_mult: 0
  }
  param {
    lr_mult: 0
    decay_mult: 0
  }
  include {
    phase: TEST
  }
  batch_norm_param {
    use_global_stats: true
  }
}
layer {
  name: "map16_3_scale2"
  type: "Scale"
  bottom: "map16_3_conv2"
  top: "map16_3_conv2"
  scale_param {
    bias_term: true
  }
}
layer {
  name: "map16_3_relu2"
  type: "ReLU"
  bottom: "map16_3_conv2"
  top: "map16_3_conv2"
}
layer {
  name: "map16_3_conv_end"
  type: "Convolution"
  bottom: "map16_3_conv2"
  top: "map16_3_conv_end"
  param {
    lr_mult: 1
    decay_mult: 1
  }
  param {
    lr_mult: 2
    decay_mult: 0
  }
  convolution_param {
    num_output: 64
    pad: 0
    kernel_size: 1
    stride: 1
    weight_filler {
      type: "msra"
    }
    bias_filler {
      type: "constant"
      value: 0
    }
  }
}
layer {
  name: "map16_3_eltsum"
  type: "Eltwise"
  bottom: "map16_2_eltsum"
  bottom: "map16_3_conv_end"
  top: "map16_3_eltsum"
  eltwise_param {
    operation: SUM
  }
}
layer {
  name: "map16_4_bn_pre"
  type: "BatchNorm"
  bottom: "map16_3_eltsum"
  top: "map16_4_bn_pre"
  param {
    lr_mult: 0
    decay_mult: 0
  }
  param {
    lr_mult: 0
    decay_mult: 0
  }
  param {
    lr_mult: 0
    decay_mult: 0
  }
  include {
    phase: TRAIN
  }
  batch_norm_param {
    use_global_stats: false
  }
}
layer {
  name: "map16_4_bn_pre"
  type: "BatchNorm"
  bottom: "map16_3_eltsum"
  top: "map16_4_bn_pre"
  param {
    lr_mult: 0
    decay_mult: 0
  }
  param {
    lr_mult: 0
    decay_mult: 0
  }
  param {
    lr_mult: 0
    decay_mult: 0
  }
  include {
    phase: TEST
  }
  batch_norm_param {
    use_global_stats: true
  }
}
layer {
  name: "map16_4_pre_scale"
  type: "Scale"
  bottom: "map16_4_bn_pre"
  top: "map16_4_bn_pre"
  scale_param {
    bias_term: true
  }
}
layer {
  name: "map16_4_pre_relu"
  type: "ReLU"
  bottom: "map16_4_bn_pre"
  top: "map16_4_bn_pre"
}
layer {
  name: "map16_4_conv1"
  type: "Convolution"
  bottom: "map16_4_bn_pre"
  top: "map16_4_conv1"
  param {
    lr_mult: 1
    decay_mult: 1
  }
  param {
    lr_mult: 2
    decay_mult: 0
  }
  convolution_param {
    num_output: 16
    pad: 0
    kernel_size: 1
    stride: 1
    weight_filler {
      type: "msra"
    }
    bias_filler {
      type: "constant"
      value: 0
    }
  }
}
layer {
  name: "map16_4_bn1"
  type: "BatchNorm"
  bottom: "map16_4_conv1"
  top: "map16_4_conv1"
  param {
    lr_mult: 0
    decay_mult: 0
  }
  param {
    lr_mult: 0
    decay_mult: 0
  }
  param {
    lr_mult: 0
    decay_mult: 0
  }
  include {
    phase: TRAIN
  }
  batch_norm_param {
    use_global_stats: false
  }
}
layer {
  name: "map16_4_bn1"
  type: "BatchNorm"
  bottom: "map16_4_conv1"
  top: "map16_4_conv1"
  param {
    lr_mult: 0
    decay_mult: 0
  }
  param {
    lr_mult: 0
    decay_mult: 0
  }
  param {
    lr_mult: 0
    decay_mult: 0
  }
  include {
    phase: TEST
  }
  batch_norm_param {
    use_global_stats: true
  }
}
layer {
  name: "map16_4_scale1"
  type: "Scale"
  bottom: "map16_4_conv1"
  top: "map16_4_conv1"
  scale_param {
    bias_term: true
  }
}
layer {
  name: "map16_4_relu1"
  type: "ReLU"
  bottom: "map16_4_conv1"
  top: "map16_4_conv1"
}
layer {
  name: "map16_4_conv2"
  type: "Convolution"
  bottom: "map16_4_conv1"
  top: "map16_4_conv2"
  param {
    lr_mult: 1
    decay_mult: 1
  }
  param {
    lr_mult: 2
    decay_mult: 0
  }
  convolution_param {
    num_output: 16
    pad: 1
    kernel_size: 3
    stride: 1
    weight_filler {
      type: "msra"
    }
    bias_filler {
      type: "constant"
      value: 0
    }
  }
}
layer {
  name: "map16_4_bn2"
  type: "BatchNorm"
  bottom: "map16_4_conv2"
  top: "map16_4_conv2"
  param {
    lr_mult: 0
    decay_mult: 0
  }
  param {
    lr_mult: 0
    decay_mult: 0
  }
  param {
    lr_mult: 0
    decay_mult: 0
  }
  include {
    phase: TRAIN
  }
  batch_norm_param {
    use_global_stats: false
  }
}
layer {
  name: "map16_4_bn2"
  type: "BatchNorm"
  bottom: "map16_4_conv2"
  top: "map16_4_conv2"
  param {
    lr_mult: 0
    decay_mult: 0
  }
  param {
    lr_mult: 0
    decay_mult: 0
  }
  param {
    lr_mult: 0
    decay_mult: 0
  }
  include {
    phase: TEST
  }
  batch_norm_param {
    use_global_stats: true
  }
}
layer {
  name: "map16_4_scale2"
  type: "Scale"
  bottom: "map16_4_conv2"
  top: "map16_4_conv2"
  scale_param {
    bias_term: true
  }
}
layer {
  name: "map16_4_relu2"
  type: "ReLU"
  bottom: "map16_4_conv2"
  top: "map16_4_conv2"
}
layer {
  name: "map16_4_conv_end"
  type: "Convolution"
  bottom: "map16_4_conv2"
  top: "map16_4_conv_end"
  param {
    lr_mult: 1
    decay_mult: 1
  }
  param {
    lr_mult: 2
    decay_mult: 0
  }
  convolution_param {
    num_output: 64
    pad: 0
    kernel_size: 1
    stride: 1
    weight_filler {
      type: "msra"
    }
    bias_filler {
      type: "constant"
      value: 0
    }
  }
}
layer {
  name: "map16_4_eltsum"
  type: "Eltwise"
  bottom: "map16_3_eltsum"
  bottom: "map16_4_conv_end"
  top: "map16_4_eltsum"
  eltwise_param {
    operation: SUM
  }
}
layer {
  name: "map16_5_bn_pre"
  type: "BatchNorm"
  bottom: "map16_4_eltsum"
  top: "map16_5_bn_pre"
  param {
    lr_mult: 0
    decay_mult: 0
  }
  param {
    lr_mult: 0
    decay_mult: 0
  }
  param {
    lr_mult: 0
    decay_mult: 0
  }
  include {
    phase: TRAIN
  }
  batch_norm_param {
    use_global_stats: false
  }
}
layer {
  name: "map16_5_bn_pre"
  type: "BatchNorm"
  bottom: "map16_4_eltsum"
  top: "map16_5_bn_pre"
  param {
    lr_mult: 0
    decay_mult: 0
  }
  param {
    lr_mult: 0
    decay_mult: 0
  }
  param {
    lr_mult: 0
    decay_mult: 0
  }
  include {
    phase: TEST
  }
  batch_norm_param {
    use_global_stats: true
  }
}
layer {
  name: "map16_5_pre_scale"
  type: "Scale"
  bottom: "map16_5_bn_pre"
  top: "map16_5_bn_pre"
  scale_param {
    bias_term: true
  }
}
layer {
  name: "map16_5_pre_relu"
  type: "ReLU"
  bottom: "map16_5_bn_pre"
  top: "map16_5_bn_pre"
}
layer {
  name: "map16_5_conv1"
  type: "Convolution"
  bottom: "map16_5_bn_pre"
  top: "map16_5_conv1"
  param {
    lr_mult: 1
    decay_mult: 1
  }
  param {
    lr_mult: 2
    decay_mult: 0
  }
  convolution_param {
    num_output: 16
    pad: 0
    kernel_size: 1
    stride: 1
    weight_filler {
      type: "msra"
    }
    bias_filler {
      type: "constant"
      value: 0
    }
  }
}
layer {
  name: "map16_5_bn1"
  type: "BatchNorm"
  bottom: "map16_5_conv1"
  top: "map16_5_conv1"
  param {
    lr_mult: 0
    decay_mult: 0
  }
  param {
    lr_mult: 0
    decay_mult: 0
  }
  param {
    lr_mult: 0
    decay_mult: 0
  }
  include {
    phase: TRAIN
  }
  batch_norm_param {
    use_global_stats: false
  }
}
layer {
  name: "map16_5_bn1"
  type: "BatchNorm"
  bottom: "map16_5_conv1"
  top: "map16_5_conv1"
  param {
    lr_mult: 0
    decay_mult: 0
  }
  param {
    lr_mult: 0
    decay_mult: 0
  }
  param {
    lr_mult: 0
    decay_mult: 0
  }
  include {
    phase: TEST
  }
  batch_norm_param {
    use_global_stats: true
  }
}
layer {
  name: "map16_5_scale1"
  type: "Scale"
  bottom: "map16_5_conv1"
  top: "map16_5_conv1"
  scale_param {
    bias_term: true
  }
}
layer {
  name: "map16_5_relu1"
  type: "ReLU"
  bottom: "map16_5_conv1"
  top: "map16_5_conv1"
}
layer {
  name: "map16_5_conv2"
  type: "Convolution"
  bottom: "map16_5_conv1"
  top: "map16_5_conv2"
  param {
    lr_mult: 1
    decay_mult: 1
  }
  param {
    lr_mult: 2
    decay_mult: 0
  }
  convolution_param {
    num_output: 16
    pad: 1
    kernel_size: 3
    stride: 1
    weight_filler {
      type: "msra"
    }
    bias_filler {
      type: "constant"
      value: 0
    }
  }
}
layer {
  name: "map16_5_bn2"
  type: "BatchNorm"
  bottom: "map16_5_conv2"
  top: "map16_5_conv2"
  param {
    lr_mult: 0
    decay_mult: 0
  }
  param {
    lr_mult: 0
    decay_mult: 0
  }
  param {
    lr_mult: 0
    decay_mult: 0
  }
  include {
    phase: TRAIN
  }
  batch_norm_param {
    use_global_stats: false
  }
}
layer {
  name: "map16_5_bn2"
  type: "BatchNorm"
  bottom: "map16_5_conv2"
  top: "map16_5_conv2"
  param {
    lr_mult: 0
    decay_mult: 0
  }
  param {
    lr_mult: 0
    decay_mult: 0
  }
  param {
    lr_mult: 0
    decay_mult: 0
  }
  include {
    phase: TEST
  }
  batch_norm_param {
    use_global_stats: true
  }
}
layer {
  name: "map16_5_scale2"
  type: "Scale"
  bottom: "map16_5_conv2"
  top: "map16_5_conv2"
  scale_param {
    bias_term: true
  }
}
layer {
  name: "map16_5_relu2"
  type: "ReLU"
  bottom: "map16_5_conv2"
  top: "map16_5_conv2"
}
layer {
  name: "map16_5_conv_end"
  type: "Convolution"
  bottom: "map16_5_conv2"
  top: "map16_5_conv_end"
  param {
    lr_mult: 1
    decay_mult: 1
  }
  param {
    lr_mult: 2
    decay_mult: 0
  }
  convolution_param {
    num_output: 64
    pad: 0
    kernel_size: 1
    stride: 1
    weight_filler {
      type: "msra"
    }
    bias_filler {
      type: "constant"
      value: 0
    }
  }
}
layer {
  name: "map16_5_eltsum"
  type: "Eltwise"
  bottom: "map16_4_eltsum"
  bottom: "map16_5_conv_end"
  top: "map16_5_eltsum"
  eltwise_param {
    operation: SUM
  }
}
layer {
  name: "map16_6_bn_pre"
  type: "BatchNorm"
  bottom: "map16_5_eltsum"
  top: "map16_6_bn_pre"
  param {
    lr_mult: 0
    decay_mult: 0
  }
  param {
    lr_mult: 0
    decay_mult: 0
  }
  param {
    lr_mult: 0
    decay_mult: 0
  }
  include {
    phase: TRAIN
  }
  batch_norm_param {
    use_global_stats: false
  }
}
layer {
  name: "map16_6_bn_pre"
  type: "BatchNorm"
  bottom: "map16_5_eltsum"
  top: "map16_6_bn_pre"
  param {
    lr_mult: 0
    decay_mult: 0
  }
  param {
    lr_mult: 0
    decay_mult: 0
  }
  param {
    lr_mult: 0
    decay_mult: 0
  }
  include {
    phase: TEST
  }
  batch_norm_param {
    use_global_stats: true
  }
}
layer {
  name: "map16_6_pre_scale"
  type: "Scale"
  bottom: "map16_6_bn_pre"
  top: "map16_6_bn_pre"
  scale_param {
    bias_term: true
  }
}
layer {
  name: "map16_6_pre_relu"
  type: "ReLU"
  bottom: "map16_6_bn_pre"
  top: "map16_6_bn_pre"
}
layer {
  name: "map16_6_conv1"
  type: "Convolution"
  bottom: "map16_6_bn_pre"
  top: "map16_6_conv1"
  param {
    lr_mult: 1
    decay_mult: 1
  }
  param {
    lr_mult: 2
    decay_mult: 0
  }
  convolution_param {
    num_output: 16
    pad: 0
    kernel_size: 1
    stride: 1
    weight_filler {
      type: "msra"
    }
    bias_filler {
      type: "constant"
      value: 0
    }
  }
}
layer {
  name: "map16_6_bn1"
  type: "BatchNorm"
  bottom: "map16_6_conv1"
  top: "map16_6_conv1"
  param {
    lr_mult: 0
    decay_mult: 0
  }
  param {
    lr_mult: 0
    decay_mult: 0
  }
  param {
    lr_mult: 0
    decay_mult: 0
  }
  include {
    phase: TRAIN
  }
  batch_norm_param {
    use_global_stats: false
  }
}
layer {
  name: "map16_6_bn1"
  type: "BatchNorm"
  bottom: "map16_6_conv1"
  top: "map16_6_conv1"
  param {
    lr_mult: 0
    decay_mult: 0
  }
  param {
    lr_mult: 0
    decay_mult: 0
  }
  param {
    lr_mult: 0
    decay_mult: 0
  }
  include {
    phase: TEST
  }
  batch_norm_param {
    use_global_stats: true
  }
}
layer {
  name: "map16_6_scale1"
  type: "Scale"
  bottom: "map16_6_conv1"
  top: "map16_6_conv1"
  scale_param {
    bias_term: true
  }
}
layer {
  name: "map16_6_relu1"
  type: "ReLU"
  bottom: "map16_6_conv1"
  top: "map16_6_conv1"
}
layer {
  name: "map16_6_conv2"
  type: "Convolution"
  bottom: "map16_6_conv1"
  top: "map16_6_conv2"
  param {
    lr_mult: 1
    decay_mult: 1
  }
  param {
    lr_mult: 2
    decay_mult: 0
  }
  convolution_param {
    num_output: 16
    pad: 1
    kernel_size: 3
    stride: 1
    weight_filler {
      type: "msra"
    }
    bias_filler {
      type: "constant"
      value: 0
    }
  }
}
layer {
  name: "map16_6_bn2"
  type: "BatchNorm"
  bottom: "map16_6_conv2"
  top: "map16_6_conv2"
  param {
    lr_mult: 0
    decay_mult: 0
  }
  param {
    lr_mult: 0
    decay_mult: 0
  }
  param {
    lr_mult: 0
    decay_mult: 0
  }
  include {
    phase: TRAIN
  }
  batch_norm_param {
    use_global_stats: false
  }
}
layer {
  name: "map16_6_bn2"
  type: "BatchNorm"
  bottom: "map16_6_conv2"
  top: "map16_6_conv2"
  param {
    lr_mult: 0
    decay_mult: 0
  }
  param {
    lr_mult: 0
    decay_mult: 0
  }
  param {
    lr_mult: 0
    decay_mult: 0
  }
  include {
    phase: TEST
  }
  batch_norm_param {
    use_global_stats: true
  }
}
layer {
  name: "map16_6_scale2"
  type: "Scale"
  bottom: "map16_6_conv2"
  top: "map16_6_conv2"
  scale_param {
    bias_term: true
  }
}
layer {
  name: "map16_6_relu2"
  type: "ReLU"
  bottom: "map16_6_conv2"
  top: "map16_6_conv2"
}
layer {
  name: "map16_6_conv_end"
  type: "Convolution"
  bottom: "map16_6_conv2"
  top: "map16_6_conv_end"
  param {
    lr_mult: 1
    decay_mult: 1
  }
  param {
    lr_mult: 2
    decay_mult: 0
  }
  convolution_param {
    num_output: 64
    pad: 0
    kernel_size: 1
    stride: 1
    weight_filler {
      type: "msra"
    }
    bias_filler {
      type: "constant"
      value: 0
    }
  }
}
layer {
  name: "map16_6_eltsum"
  type: "Eltwise"
  bottom: "map16_5_eltsum"
  bottom: "map16_6_conv_end"
  top: "map16_6_eltsum"
  eltwise_param {
    operation: SUM
  }
}
layer {
  name: "map16_7_bn_pre"
  type: "BatchNorm"
  bottom: "map16_6_eltsum"
  top: "map16_7_bn_pre"
  param {
    lr_mult: 0
    decay_mult: 0
  }
  param {
    lr_mult: 0
    decay_mult: 0
  }
  param {
    lr_mult: 0
    decay_mult: 0
  }
  include {
    phase: TRAIN
  }
  batch_norm_param {
    use_global_stats: false
  }
}
layer {
  name: "map16_7_bn_pre"
  type: "BatchNorm"
  bottom: "map16_6_eltsum"
  top: "map16_7_bn_pre"
  param {
    lr_mult: 0
    decay_mult: 0
  }
  param {
    lr_mult: 0
    decay_mult: 0
  }
  param {
    lr_mult: 0
    decay_mult: 0
  }
  include {
    phase: TEST
  }
  batch_norm_param {
    use_global_stats: true
  }
}
layer {
  name: "map16_7_pre_scale"
  type: "Scale"
  bottom: "map16_7_bn_pre"
  top: "map16_7_bn_pre"
  scale_param {
    bias_term: true
  }
}
layer {
  name: "map16_7_pre_relu"
  type: "ReLU"
  bottom: "map16_7_bn_pre"
  top: "map16_7_bn_pre"
}
layer {
  name: "map16_7_conv1"
  type: "Convolution"
  bottom: "map16_7_bn_pre"
  top: "map16_7_conv1"
  param {
    lr_mult: 1
    decay_mult: 1
  }
  param {
    lr_mult: 2
    decay_mult: 0
  }
  convolution_param {
    num_output: 16
    pad: 0
    kernel_size: 1
    stride: 1
    weight_filler {
      type: "msra"
    }
    bias_filler {
      type: "constant"
      value: 0
    }
  }
}
layer {
  name: "map16_7_bn1"
  type: "BatchNorm"
  bottom: "map16_7_conv1"
  top: "map16_7_conv1"
  param {
    lr_mult: 0
    decay_mult: 0
  }
  param {
    lr_mult: 0
    decay_mult: 0
  }
  param {
    lr_mult: 0
    decay_mult: 0
  }
  include {
    phase: TRAIN
  }
  batch_norm_param {
    use_global_stats: false
  }
}
layer {
  name: "map16_7_bn1"
  type: "BatchNorm"
  bottom: "map16_7_conv1"
  top: "map16_7_conv1"
  param {
    lr_mult: 0
    decay_mult: 0
  }
  param {
    lr_mult: 0
    decay_mult: 0
  }
  param {
    lr_mult: 0
    decay_mult: 0
  }
  include {
    phase: TEST
  }
  batch_norm_param {
    use_global_stats: true
  }
}
layer {
  name: "map16_7_scale1"
  type: "Scale"
  bottom: "map16_7_conv1"
  top: "map16_7_conv1"
  scale_param {
    bias_term: true
  }
}
layer {
  name: "map16_7_relu1"
  type: "ReLU"
  bottom: "map16_7_conv1"
  top: "map16_7_conv1"
}
layer {
  name: "map16_7_conv2"
  type: "Convolution"
  bottom: "map16_7_conv1"
  top: "map16_7_conv2"
  param {
    lr_mult: 1
    decay_mult: 1
  }
  param {
    lr_mult: 2
    decay_mult: 0
  }
  convolution_param {
    num_output: 16
    pad: 1
    kernel_size: 3
    stride: 1
    weight_filler {
      type: "msra"
    }
    bias_filler {
      type: "constant"
      value: 0
    }
  }
}
layer {
  name: "map16_7_bn2"
  type: "BatchNorm"
  bottom: "map16_7_conv2"
  top: "map16_7_conv2"
  param {
    lr_mult: 0
    decay_mult: 0
  }
  param {
    lr_mult: 0
    decay_mult: 0
  }
  param {
    lr_mult: 0
    decay_mult: 0
  }
  include {
    phase: TRAIN
  }
  batch_norm_param {
    use_global_stats: false
  }
}
layer {
  name: "map16_7_bn2"
  type: "BatchNorm"
  bottom: "map16_7_conv2"
  top: "map16_7_conv2"
  param {
    lr_mult: 0
    decay_mult: 0
  }
  param {
    lr_mult: 0
    decay_mult: 0
  }
  param {
    lr_mult: 0
    decay_mult: 0
  }
  include {
    phase: TEST
  }
  batch_norm_param {
    use_global_stats: true
  }
}
layer {
  name: "map16_7_scale2"
  type: "Scale"
  bottom: "map16_7_conv2"
  top: "map16_7_conv2"
  scale_param {
    bias_term: true
  }
}
layer {
  name: "map16_7_relu2"
  type: "ReLU"
  bottom: "map16_7_conv2"
  top: "map16_7_conv2"
}
layer {
  name: "map16_7_conv_end"
  type: "Convolution"
  bottom: "map16_7_conv2"
  top: "map16_7_conv_end"
  param {
    lr_mult: 1
    decay_mult: 1
  }
  param {
    lr_mult: 2
    decay_mult: 0
  }
  convolution_param {
    num_output: 64
    pad: 0
    kernel_size: 1
    stride: 1
    weight_filler {
      type: "msra"
    }
    bias_filler {
      type: "constant"
      value: 0
    }
  }
}
layer {
  name: "map16_7_eltsum"
  type: "Eltwise"
  bottom: "map16_6_eltsum"
  bottom: "map16_7_conv_end"
  top: "map16_7_eltsum"
  eltwise_param {
    operation: SUM
  }
}
layer {
  name: "map16_8_bn_pre"
  type: "BatchNorm"
  bottom: "map16_7_eltsum"
  top: "map16_8_bn_pre"
  param {
    lr_mult: 0
    decay_mult: 0
  }
  param {
    lr_mult: 0
    decay_mult: 0
  }
  param {
    lr_mult: 0
    decay_mult: 0
  }
  include {
    phase: TRAIN
  }
  batch_norm_param {
    use_global_stats: false
  }
}
layer {
  name: "map16_8_bn_pre"
  type: "BatchNorm"
  bottom: "map16_7_eltsum"
  top: "map16_8_bn_pre"
  param {
    lr_mult: 0
    decay_mult: 0
  }
  param {
    lr_mult: 0
    decay_mult: 0
  }
  param {
    lr_mult: 0
    decay_mult: 0
  }
  include {
    phase: TEST
  }
  batch_norm_param {
    use_global_stats: true
  }
}
layer {
  name: "map16_8_pre_scale"
  type: "Scale"
  bottom: "map16_8_bn_pre"
  top: "map16_8_bn_pre"
  scale_param {
    bias_term: true
  }
}
layer {
  name: "map16_8_pre_relu"
  type: "ReLU"
  bottom: "map16_8_bn_pre"
  top: "map16_8_bn_pre"
}
layer {
  name: "map16_8_conv1"
  type: "Convolution"
  bottom: "map16_8_bn_pre"
  top: "map16_8_conv1"
  param {
    lr_mult: 1
    decay_mult: 1
  }
  param {
    lr_mult: 2
    decay_mult: 0
  }
  convolution_param {
    num_output: 16
    pad: 0
    kernel_size: 1
    stride: 1
    weight_filler {
      type: "msra"
    }
    bias_filler {
      type: "constant"
      value: 0
    }
  }
}
layer {
  name: "map16_8_bn1"
  type: "BatchNorm"
  bottom: "map16_8_conv1"
  top: "map16_8_conv1"
  param {
    lr_mult: 0
    decay_mult: 0
  }
  param {
    lr_mult: 0
    decay_mult: 0
  }
  param {
    lr_mult: 0
    decay_mult: 0
  }
  include {
    phase: TRAIN
  }
  batch_norm_param {
    use_global_stats: false
  }
}
layer {
  name: "map16_8_bn1"
  type: "BatchNorm"
  bottom: "map16_8_conv1"
  top: "map16_8_conv1"
  param {
    lr_mult: 0
    decay_mult: 0
  }
  param {
    lr_mult: 0
    decay_mult: 0
  }
  param {
    lr_mult: 0
    decay_mult: 0
  }
  include {
    phase: TEST
  }
  batch_norm_param {
    use_global_stats: true
  }
}
layer {
  name: "map16_8_scale1"
  type: "Scale"
  bottom: "map16_8_conv1"
  top: "map16_8_conv1"
  scale_param {
    bias_term: true
  }
}
layer {
  name: "map16_8_relu1"
  type: "ReLU"
  bottom: "map16_8_conv1"
  top: "map16_8_conv1"
}
layer {
  name: "map16_8_conv2"
  type: "Convolution"
  bottom: "map16_8_conv1"
  top: "map16_8_conv2"
  param {
    lr_mult: 1
    decay_mult: 1
  }
  param {
    lr_mult: 2
    decay_mult: 0
  }
  convolution_param {
    num_output: 16
    pad: 1
    kernel_size: 3
    stride: 1
    weight_filler {
      type: "msra"
    }
    bias_filler {
      type: "constant"
      value: 0
    }
  }
}
layer {
  name: "map16_8_bn2"
  type: "BatchNorm"
  bottom: "map16_8_conv2"
  top: "map16_8_conv2"
  param {
    lr_mult: 0
    decay_mult: 0
  }
  param {
    lr_mult: 0
    decay_mult: 0
  }
  param {
    lr_mult: 0
    decay_mult: 0
  }
  include {
    phase: TRAIN
  }
  batch_norm_param {
    use_global_stats: false
  }
}
layer {
  name: "map16_8_bn2"
  type: "BatchNorm"
  bottom: "map16_8_conv2"
  top: "map16_8_conv2"
  param {
    lr_mult: 0
    decay_mult: 0
  }
  param {
    lr_mult: 0
    decay_mult: 0
  }
  param {
    lr_mult: 0
    decay_mult: 0
  }
  include {
    phase: TEST
  }
  batch_norm_param {
    use_global_stats: true
  }
}
layer {
  name: "map16_8_scale2"
  type: "Scale"
  bottom: "map16_8_conv2"
  top: "map16_8_conv2"
  scale_param {
    bias_term: true
  }
}
layer {
  name: "map16_8_relu2"
  type: "ReLU"
  bottom: "map16_8_conv2"
  top: "map16_8_conv2"
}
layer {
  name: "map16_8_conv_end"
  type: "Convolution"
  bottom: "map16_8_conv2"
  top: "map16_8_conv_end"
  param {
    lr_mult: 1
    decay_mult: 1
  }
  param {
    lr_mult: 2
    decay_mult: 0
  }
  convolution_param {
    num_output: 64
    pad: 0
    kernel_size: 1
    stride: 1
    weight_filler {
      type: "msra"
    }
    bias_filler {
      type: "constant"
      value: 0
    }
  }
}
layer {
  name: "map16_8_eltsum"
  type: "Eltwise"
  bottom: "map16_7_eltsum"
  bottom: "map16_8_conv_end"
  top: "map16_8_eltsum"
  eltwise_param {
    operation: SUM
  }
}
layer {
  name: "map16_9_bn_pre"
  type: "BatchNorm"
  bottom: "map16_8_eltsum"
  top: "map16_9_bn_pre"
  param {
    lr_mult: 0
    decay_mult: 0
  }
  param {
    lr_mult: 0
    decay_mult: 0
  }
  param {
    lr_mult: 0
    decay_mult: 0
  }
  include {
    phase: TRAIN
  }
  batch_norm_param {
    use_global_stats: false
  }
}
layer {
  name: "map16_9_bn_pre"
  type: "BatchNorm"
  bottom: "map16_8_eltsum"
  top: "map16_9_bn_pre"
  param {
    lr_mult: 0
    decay_mult: 0
  }
  param {
    lr_mult: 0
    decay_mult: 0
  }
  param {
    lr_mult: 0
    decay_mult: 0
  }
  include {
    phase: TEST
  }
  batch_norm_param {
    use_global_stats: true
  }
}
layer {
  name: "map16_9_pre_scale"
  type: "Scale"
  bottom: "map16_9_bn_pre"
  top: "map16_9_bn_pre"
  scale_param {
    bias_term: true
  }
}
layer {
  name: "map16_9_pre_relu"
  type: "ReLU"
  bottom: "map16_9_bn_pre"
  top: "map16_9_bn_pre"
}
layer {
  name: "map16_9_conv1"
  type: "Convolution"
  bottom: "map16_9_bn_pre"
  top: "map16_9_conv1"
  param {
    lr_mult: 1
    decay_mult: 1
  }
  param {
    lr_mult: 2
    decay_mult: 0
  }
  convolution_param {
    num_output: 16
    pad: 0
    kernel_size: 1
    stride: 1
    weight_filler {
      type: "msra"
    }
    bias_filler {
      type: "constant"
      value: 0
    }
  }
}
layer {
  name: "map16_9_bn1"
  type: "BatchNorm"
  bottom: "map16_9_conv1"
  top: "map16_9_conv1"
  param {
    lr_mult: 0
    decay_mult: 0
  }
  param {
    lr_mult: 0
    decay_mult: 0
  }
  param {
    lr_mult: 0
    decay_mult: 0
  }
  include {
    phase: TRAIN
  }
  batch_norm_param {
    use_global_stats: false
  }
}
layer {
  name: "map16_9_bn1"
  type: "BatchNorm"
  bottom: "map16_9_conv1"
  top: "map16_9_conv1"
  param {
    lr_mult: 0
    decay_mult: 0
  }
  param {
    lr_mult: 0
    decay_mult: 0
  }
  param {
    lr_mult: 0
    decay_mult: 0
  }
  include {
    phase: TEST
  }
  batch_norm_param {
    use_global_stats: true
  }
}
layer {
  name: "map16_9_scale1"
  type: "Scale"
  bottom: "map16_9_conv1"
  top: "map16_9_conv1"
  scale_param {
    bias_term: true
  }
}
layer {
  name: "map16_9_relu1"
  type: "ReLU"
  bottom: "map16_9_conv1"
  top: "map16_9_conv1"
}
layer {
  name: "map16_9_conv2"
  type: "Convolution"
  bottom: "map16_9_conv1"
  top: "map16_9_conv2"
  param {
    lr_mult: 1
    decay_mult: 1
  }
  param {
    lr_mult: 2
    decay_mult: 0
  }
  convolution_param {
    num_output: 16
    pad: 1
    kernel_size: 3
    stride: 1
    weight_filler {
      type: "msra"
    }
    bias_filler {
      type: "constant"
      value: 0
    }
  }
}
layer {
  name: "map16_9_bn2"
  type: "BatchNorm"
  bottom: "map16_9_conv2"
  top: "map16_9_conv2"
  param {
    lr_mult: 0
    decay_mult: 0
  }
  param {
    lr_mult: 0
    decay_mult: 0
  }
  param {
    lr_mult: 0
    decay_mult: 0
  }
  include {
    phase: TRAIN
  }
  batch_norm_param {
    use_global_stats: false
  }
}
layer {
  name: "map16_9_bn2"
  type: "BatchNorm"
  bottom: "map16_9_conv2"
  top: "map16_9_conv2"
  param {
    lr_mult: 0
    decay_mult: 0
  }
  param {
    lr_mult: 0
    decay_mult: 0
  }
  param {
    lr_mult: 0
    decay_mult: 0
  }
  include {
    phase: TEST
  }
  batch_norm_param {
    use_global_stats: true
  }
}
layer {
  name: "map16_9_scale2"
  type: "Scale"
  bottom: "map16_9_conv2"
  top: "map16_9_conv2"
  scale_param {
    bias_term: true
  }
}
layer {
  name: "map16_9_relu2"
  type: "ReLU"
  bottom: "map16_9_conv2"
  top: "map16_9_conv2"
}
layer {
  name: "map16_9_conv_end"
  type: "Convolution"
  bottom: "map16_9_conv2"
  top: "map16_9_conv_end"
  param {
    lr_mult: 1
    decay_mult: 1
  }
  param {
    lr_mult: 2
    decay_mult: 0
  }
  convolution_param {
    num_output: 64
    pad: 0
    kernel_size: 1
    stride: 1
    weight_filler {
      type: "msra"
    }
    bias_filler {
      type: "constant"
      value: 0
    }
  }
}
layer {
  name: "map16_9_eltsum"
  type: "Eltwise"
  bottom: "map16_8_eltsum"
  bottom: "map16_9_conv_end"
  top: "map16_9_eltsum"
  eltwise_param {
    operation: SUM
  }
}
layer {
  name: "map16_10_bn_pre"
  type: "BatchNorm"
  bottom: "map16_9_eltsum"
  top: "map16_10_bn_pre"
  param {
    lr_mult: 0
    decay_mult: 0
  }
  param {
    lr_mult: 0
    decay_mult: 0
  }
  param {
    lr_mult: 0
    decay_mult: 0
  }
  include {
    phase: TRAIN
  }
  batch_norm_param {
    use_global_stats: false
  }
}
layer {
  name: "map16_10_bn_pre"
  type: "BatchNorm"
  bottom: "map16_9_eltsum"
  top: "map16_10_bn_pre"
  param {
    lr_mult: 0
    decay_mult: 0
  }
  param {
    lr_mult: 0
    decay_mult: 0
  }
  param {
    lr_mult: 0
    decay_mult: 0
  }
  include {
    phase: TEST
  }
  batch_norm_param {
    use_global_stats: true
  }
}
layer {
  name: "map16_10_pre_scale"
  type: "Scale"
  bottom: "map16_10_bn_pre"
  top: "map16_10_bn_pre"
  scale_param {
    bias_term: true
  }
}
layer {
  name: "map16_10_pre_relu"
  type: "ReLU"
  bottom: "map16_10_bn_pre"
  top: "map16_10_bn_pre"
}
layer {
  name: "map16_10_conv1"
  type: "Convolution"
  bottom: "map16_10_bn_pre"
  top: "map16_10_conv1"
  param {
    lr_mult: 1
    decay_mult: 1
  }
  param {
    lr_mult: 2
    decay_mult: 0
  }
  convolution_param {
    num_output: 16
    pad: 0
    kernel_size: 1
    stride: 1
    weight_filler {
      type: "msra"
    }
    bias_filler {
      type: "constant"
      value: 0
    }
  }
}
layer {
  name: "map16_10_bn1"
  type: "BatchNorm"
  bottom: "map16_10_conv1"
  top: "map16_10_conv1"
  param {
    lr_mult: 0
    decay_mult: 0
  }
  param {
    lr_mult: 0
    decay_mult: 0
  }
  param {
    lr_mult: 0
    decay_mult: 0
  }
  include {
    phase: TRAIN
  }
  batch_norm_param {
    use_global_stats: false
  }
}
layer {
  name: "map16_10_bn1"
  type: "BatchNorm"
  bottom: "map16_10_conv1"
  top: "map16_10_conv1"
  param {
    lr_mult: 0
    decay_mult: 0
  }
  param {
    lr_mult: 0
    decay_mult: 0
  }
  param {
    lr_mult: 0
    decay_mult: 0
  }
  include {
    phase: TEST
  }
  batch_norm_param {
    use_global_stats: true
  }
}
layer {
  name: "map16_10_scale1"
  type: "Scale"
  bottom: "map16_10_conv1"
  top: "map16_10_conv1"
  scale_param {
    bias_term: true
  }
}
layer {
  name: "map16_10_relu1"
  type: "ReLU"
  bottom: "map16_10_conv1"
  top: "map16_10_conv1"
}
layer {
  name: "map16_10_conv2"
  type: "Convolution"
  bottom: "map16_10_conv1"
  top: "map16_10_conv2"
  param {
    lr_mult: 1
    decay_mult: 1
  }
  param {
    lr_mult: 2
    decay_mult: 0
  }
  convolution_param {
    num_output: 16
    pad: 1
    kernel_size: 3
    stride: 1
    weight_filler {
      type: "msra"
    }
    bias_filler {
      type: "constant"
      value: 0
    }
  }
}
layer {
  name: "map16_10_bn2"
  type: "BatchNorm"
  bottom: "map16_10_conv2"
  top: "map16_10_conv2"
  param {
    lr_mult: 0
    decay_mult: 0
  }
  param {
    lr_mult: 0
    decay_mult: 0
  }
  param {
    lr_mult: 0
    decay_mult: 0
  }
  include {
    phase: TRAIN
  }
  batch_norm_param {
    use_global_stats: false
  }
}
layer {
  name: "map16_10_bn2"
  type: "BatchNorm"
  bottom: "map16_10_conv2"
  top: "map16_10_conv2"
  param {
    lr_mult: 0
    decay_mult: 0
  }
  param {
    lr_mult: 0
    decay_mult: 0
  }
  param {
    lr_mult: 0
    decay_mult: 0
  }
  include {
    phase: TEST
  }
  batch_norm_param {
    use_global_stats: true
  }
}
layer {
  name: "map16_10_scale2"
  type: "Scale"
  bottom: "map16_10_conv2"
  top: "map16_10_conv2"
  scale_param {
    bias_term: true
  }
}
layer {
  name: "map16_10_relu2"
  type: "ReLU"
  bottom: "map16_10_conv2"
  top: "map16_10_conv2"
}
layer {
  name: "map16_10_conv_end"
  type: "Convolution"
  bottom: "map16_10_conv2"
  top: "map16_10_conv_end"
  param {
    lr_mult: 1
    decay_mult: 1
  }
  param {
    lr_mult: 2
    decay_mult: 0
  }
  convolution_param {
    num_output: 64
    pad: 0
    kernel_size: 1
    stride: 1
    weight_filler {
      type: "msra"
    }
    bias_filler {
      type: "constant"
      value: 0
    }
  }
}
layer {
  name: "map16_10_eltsum"
  type: "Eltwise"
  bottom: "map16_9_eltsum"
  bottom: "map16_10_conv_end"
  top: "map16_10_eltsum"
  eltwise_param {
    operation: SUM
  }
}
layer {
  name: "map16_11_bn_pre"
  type: "BatchNorm"
  bottom: "map16_10_eltsum"
  top: "map16_11_bn_pre"
  param {
    lr_mult: 0
    decay_mult: 0
  }
  param {
    lr_mult: 0
    decay_mult: 0
  }
  param {
    lr_mult: 0
    decay_mult: 0
  }
  include {
    phase: TRAIN
  }
  batch_norm_param {
    use_global_stats: false
  }
}
layer {
  name: "map16_11_bn_pre"
  type: "BatchNorm"
  bottom: "map16_10_eltsum"
  top: "map16_11_bn_pre"
  param {
    lr_mult: 0
    decay_mult: 0
  }
  param {
    lr_mult: 0
    decay_mult: 0
  }
  param {
    lr_mult: 0
    decay_mult: 0
  }
  include {
    phase: TEST
  }
  batch_norm_param {
    use_global_stats: true
  }
}
layer {
  name: "map16_11_pre_scale"
  type: "Scale"
  bottom: "map16_11_bn_pre"
  top: "map16_11_bn_pre"
  scale_param {
    bias_term: true
  }
}
layer {
  name: "map16_11_pre_relu"
  type: "ReLU"
  bottom: "map16_11_bn_pre"
  top: "map16_11_bn_pre"
}
layer {
  name: "map16_11_conv1"
  type: "Convolution"
  bottom: "map16_11_bn_pre"
  top: "map16_11_conv1"
  param {
    lr_mult: 1
    decay_mult: 1
  }
  param {
    lr_mult: 2
    decay_mult: 0
  }
  convolution_param {
    num_output: 16
    pad: 0
    kernel_size: 1
    stride: 1
    weight_filler {
      type: "msra"
    }
    bias_filler {
      type: "constant"
      value: 0
    }
  }
}
layer {
  name: "map16_11_bn1"
  type: "BatchNorm"
  bottom: "map16_11_conv1"
  top: "map16_11_conv1"
  param {
    lr_mult: 0
    decay_mult: 0
  }
  param {
    lr_mult: 0
    decay_mult: 0
  }
  param {
    lr_mult: 0
    decay_mult: 0
  }
  include {
    phase: TRAIN
  }
  batch_norm_param {
    use_global_stats: false
  }
}
layer {
  name: "map16_11_bn1"
  type: "BatchNorm"
  bottom: "map16_11_conv1"
  top: "map16_11_conv1"
  param {
    lr_mult: 0
    decay_mult: 0
  }
  param {
    lr_mult: 0
    decay_mult: 0
  }
  param {
    lr_mult: 0
    decay_mult: 0
  }
  include {
    phase: TEST
  }
  batch_norm_param {
    use_global_stats: true
  }
}
layer {
  name: "map16_11_scale1"
  type: "Scale"
  bottom: "map16_11_conv1"
  top: "map16_11_conv1"
  scale_param {
    bias_term: true
  }
}
layer {
  name: "map16_11_relu1"
  type: "ReLU"
  bottom: "map16_11_conv1"
  top: "map16_11_conv1"
}
layer {
  name: "map16_11_conv2"
  type: "Convolution"
  bottom: "map16_11_conv1"
  top: "map16_11_conv2"
  param {
    lr_mult: 1
    decay_mult: 1
  }
  param {
    lr_mult: 2
    decay_mult: 0
  }
  convolution_param {
    num_output: 16
    pad: 1
    kernel_size: 3
    stride: 1
    weight_filler {
      type: "msra"
    }
    bias_filler {
      type: "constant"
      value: 0
    }
  }
}
layer {
  name: "map16_11_bn2"
  type: "BatchNorm"
  bottom: "map16_11_conv2"
  top: "map16_11_conv2"
  param {
    lr_mult: 0
    decay_mult: 0
  }
  param {
    lr_mult: 0
    decay_mult: 0
  }
  param {
    lr_mult: 0
    decay_mult: 0
  }
  include {
    phase: TRAIN
  }
  batch_norm_param {
    use_global_stats: false
  }
}
layer {
  name: "map16_11_bn2"
  type: "BatchNorm"
  bottom: "map16_11_conv2"
  top: "map16_11_conv2"
  param {
    lr_mult: 0
    decay_mult: 0
  }
  param {
    lr_mult: 0
    decay_mult: 0
  }
  param {
    lr_mult: 0
    decay_mult: 0
  }
  include {
    phase: TEST
  }
  batch_norm_param {
    use_global_stats: true
  }
}
layer {
  name: "map16_11_scale2"
  type: "Scale"
  bottom: "map16_11_conv2"
  top: "map16_11_conv2"
  scale_param {
    bias_term: true
  }
}
layer {
  name: "map16_11_relu2"
  type: "ReLU"
  bottom: "map16_11_conv2"
  top: "map16_11_conv2"
}
layer {
  name: "map16_11_conv_end"
  type: "Convolution"
  bottom: "map16_11_conv2"
  top: "map16_11_conv_end"
  param {
    lr_mult: 1
    decay_mult: 1
  }
  param {
    lr_mult: 2
    decay_mult: 0
  }
  convolution_param {
    num_output: 64
    pad: 0
    kernel_size: 1
    stride: 1
    weight_filler {
      type: "msra"
    }
    bias_filler {
      type: "constant"
      value: 0
    }
  }
}
layer {
  name: "map16_11_eltsum"
  type: "Eltwise"
  bottom: "map16_10_eltsum"
  bottom: "map16_11_conv_end"
  top: "map16_11_eltsum"
  eltwise_param {
    operation: SUM
  }
}
layer {
  name: "map16_12_bn_pre"
  type: "BatchNorm"
  bottom: "map16_11_eltsum"
  top: "map16_12_bn_pre"
  param {
    lr_mult: 0
    decay_mult: 0
  }
  param {
    lr_mult: 0
    decay_mult: 0
  }
  param {
    lr_mult: 0
    decay_mult: 0
  }
  include {
    phase: TRAIN
  }
  batch_norm_param {
    use_global_stats: false
  }
}
layer {
  name: "map16_12_bn_pre"
  type: "BatchNorm"
  bottom: "map16_11_eltsum"
  top: "map16_12_bn_pre"
  param {
    lr_mult: 0
    decay_mult: 0
  }
  param {
    lr_mult: 0
    decay_mult: 0
  }
  param {
    lr_mult: 0
    decay_mult: 0
  }
  include {
    phase: TEST
  }
  batch_norm_param {
    use_global_stats: true
  }
}
layer {
  name: "map16_12_pre_scale"
  type: "Scale"
  bottom: "map16_12_bn_pre"
  top: "map16_12_bn_pre"
  scale_param {
    bias_term: true
  }
}
layer {
  name: "map16_12_pre_relu"
  type: "ReLU"
  bottom: "map16_12_bn_pre"
  top: "map16_12_bn_pre"
}
layer {
  name: "map16_12_conv1"
  type: "Convolution"
  bottom: "map16_12_bn_pre"
  top: "map16_12_conv1"
  param {
    lr_mult: 1
    decay_mult: 1
  }
  param {
    lr_mult: 2
    decay_mult: 0
  }
  convolution_param {
    num_output: 16
    pad: 0
    kernel_size: 1
    stride: 1
    weight_filler {
      type: "msra"
    }
    bias_filler {
      type: "constant"
      value: 0
    }
  }
}
layer {
  name: "map16_12_bn1"
  type: "BatchNorm"
  bottom: "map16_12_conv1"
  top: "map16_12_conv1"
  param {
    lr_mult: 0
    decay_mult: 0
  }
  param {
    lr_mult: 0
    decay_mult: 0
  }
  param {
    lr_mult: 0
    decay_mult: 0
  }
  include {
    phase: TRAIN
  }
  batch_norm_param {
    use_global_stats: false
  }
}
layer {
  name: "map16_12_bn1"
  type: "BatchNorm"
  bottom: "map16_12_conv1"
  top: "map16_12_conv1"
  param {
    lr_mult: 0
    decay_mult: 0
  }
  param {
    lr_mult: 0
    decay_mult: 0
  }
  param {
    lr_mult: 0
    decay_mult: 0
  }
  include {
    phase: TEST
  }
  batch_norm_param {
    use_global_stats: true
  }
}
layer {
  name: "map16_12_scale1"
  type: "Scale"
  bottom: "map16_12_conv1"
  top: "map16_12_conv1"
  scale_param {
    bias_term: true
  }
}
layer {
  name: "map16_12_relu1"
  type: "ReLU"
  bottom: "map16_12_conv1"
  top: "map16_12_conv1"
}
layer {
  name: "map16_12_conv2"
  type: "Convolution"
  bottom: "map16_12_conv1"
  top: "map16_12_conv2"
  param {
    lr_mult: 1
    decay_mult: 1
  }
  param {
    lr_mult: 2
    decay_mult: 0
  }
  convolution_param {
    num_output: 16
    pad: 1
    kernel_size: 3
    stride: 1
    weight_filler {
      type: "msra"
    }
    bias_filler {
      type: "constant"
      value: 0
    }
  }
}
layer {
  name: "map16_12_bn2"
  type: "BatchNorm"
  bottom: "map16_12_conv2"
  top: "map16_12_conv2"
  param {
    lr_mult: 0
    decay_mult: 0
  }
  param {
    lr_mult: 0
    decay_mult: 0
  }
  param {
    lr_mult: 0
    decay_mult: 0
  }
  include {
    phase: TRAIN
  }
  batch_norm_param {
    use_global_stats: false
  }
}
layer {
  name: "map16_12_bn2"
  type: "BatchNorm"
  bottom: "map16_12_conv2"
  top: "map16_12_conv2"
  param {
    lr_mult: 0
    decay_mult: 0
  }
  param {
    lr_mult: 0
    decay_mult: 0
  }
  param {
    lr_mult: 0
    decay_mult: 0
  }
  include {
    phase: TEST
  }
  batch_norm_param {
    use_global_stats: true
  }
}
layer {
  name: "map16_12_scale2"
  type: "Scale"
  bottom: "map16_12_conv2"
  top: "map16_12_conv2"
  scale_param {
    bias_term: true
  }
}
layer {
  name: "map16_12_relu2"
  type: "ReLU"
  bottom: "map16_12_conv2"
  top: "map16_12_conv2"
}
layer {
  name: "map16_12_conv_end"
  type: "Convolution"
  bottom: "map16_12_conv2"
  top: "map16_12_conv_end"
  param {
    lr_mult: 1
    decay_mult: 1
  }
  param {
    lr_mult: 2
    decay_mult: 0
  }
  convolution_param {
    num_output: 64
    pad: 0
    kernel_size: 1
    stride: 1
    weight_filler {
      type: "msra"
    }
    bias_filler {
      type: "constant"
      value: 0
    }
  }
}
layer {
  name: "map16_12_eltsum"
  type: "Eltwise"
  bottom: "map16_11_eltsum"
  bottom: "map16_12_conv_end"
  top: "map16_12_eltsum"
  eltwise_param {
    operation: SUM
  }
}
layer {
  name: "map16_13_bn_pre"
  type: "BatchNorm"
  bottom: "map16_12_eltsum"
  top: "map16_13_bn_pre"
  param {
    lr_mult: 0
    decay_mult: 0
  }
  param {
    lr_mult: 0
    decay_mult: 0
  }
  param {
    lr_mult: 0
    decay_mult: 0
  }
  include {
    phase: TRAIN
  }
  batch_norm_param {
    use_global_stats: false
  }
}
layer {
  name: "map16_13_bn_pre"
  type: "BatchNorm"
  bottom: "map16_12_eltsum"
  top: "map16_13_bn_pre"
  param {
    lr_mult: 0
    decay_mult: 0
  }
  param {
    lr_mult: 0
    decay_mult: 0
  }
  param {
    lr_mult: 0
    decay_mult: 0
  }
  include {
    phase: TEST
  }
  batch_norm_param {
    use_global_stats: true
  }
}
layer {
  name: "map16_13_pre_scale"
  type: "Scale"
  bottom: "map16_13_bn_pre"
  top: "map16_13_bn_pre"
  scale_param {
    bias_term: true
  }
}
layer {
  name: "map16_13_pre_relu"
  type: "ReLU"
  bottom: "map16_13_bn_pre"
  top: "map16_13_bn_pre"
}
layer {
  name: "map16_13_conv1"
  type: "Convolution"
  bottom: "map16_13_bn_pre"
  top: "map16_13_conv1"
  param {
    lr_mult: 1
    decay_mult: 1
  }
  param {
    lr_mult: 2
    decay_mult: 0
  }
  convolution_param {
    num_output: 16
    pad: 0
    kernel_size: 1
    stride: 1
    weight_filler {
      type: "msra"
    }
    bias_filler {
      type: "constant"
      value: 0
    }
  }
}
layer {
  name: "map16_13_bn1"
  type: "BatchNorm"
  bottom: "map16_13_conv1"
  top: "map16_13_conv1"
  param {
    lr_mult: 0
    decay_mult: 0
  }
  param {
    lr_mult: 0
    decay_mult: 0
  }
  param {
    lr_mult: 0
    decay_mult: 0
  }
  include {
    phase: TRAIN
  }
  batch_norm_param {
    use_global_stats: false
  }
}
layer {
  name: "map16_13_bn1"
  type: "BatchNorm"
  bottom: "map16_13_conv1"
  top: "map16_13_conv1"
  param {
    lr_mult: 0
    decay_mult: 0
  }
  param {
    lr_mult: 0
    decay_mult: 0
  }
  param {
    lr_mult: 0
    decay_mult: 0
  }
  include {
    phase: TEST
  }
  batch_norm_param {
    use_global_stats: true
  }
}
layer {
  name: "map16_13_scale1"
  type: "Scale"
  bottom: "map16_13_conv1"
  top: "map16_13_conv1"
  scale_param {
    bias_term: true
  }
}
layer {
  name: "map16_13_relu1"
  type: "ReLU"
  bottom: "map16_13_conv1"
  top: "map16_13_conv1"
}
layer {
  name: "map16_13_conv2"
  type: "Convolution"
  bottom: "map16_13_conv1"
  top: "map16_13_conv2"
  param {
    lr_mult: 1
    decay_mult: 1
  }
  param {
    lr_mult: 2
    decay_mult: 0
  }
  convolution_param {
    num_output: 16
    pad: 1
    kernel_size: 3
    stride: 1
    weight_filler {
      type: "msra"
    }
    bias_filler {
      type: "constant"
      value: 0
    }
  }
}
layer {
  name: "map16_13_bn2"
  type: "BatchNorm"
  bottom: "map16_13_conv2"
  top: "map16_13_conv2"
  param {
    lr_mult: 0
    decay_mult: 0
  }
  param {
    lr_mult: 0
    decay_mult: 0
  }
  param {
    lr_mult: 0
    decay_mult: 0
  }
  include {
    phase: TRAIN
  }
  batch_norm_param {
    use_global_stats: false
  }
}
layer {
  name: "map16_13_bn2"
  type: "BatchNorm"
  bottom: "map16_13_conv2"
  top: "map16_13_conv2"
  param {
    lr_mult: 0
    decay_mult: 0
  }
  param {
    lr_mult: 0
    decay_mult: 0
  }
  param {
    lr_mult: 0
    decay_mult: 0
  }
  include {
    phase: TEST
  }
  batch_norm_param {
    use_global_stats: true
  }
}
layer {
  name: "map16_13_scale2"
  type: "Scale"
  bottom: "map16_13_conv2"
  top: "map16_13_conv2"
  scale_param {
    bias_term: true
  }
}
layer {
  name: "map16_13_relu2"
  type: "ReLU"
  bottom: "map16_13_conv2"
  top: "map16_13_conv2"
}
layer {
  name: "map16_13_conv_end"
  type: "Convolution"
  bottom: "map16_13_conv2"
  top: "map16_13_conv_end"
  param {
    lr_mult: 1
    decay_mult: 1
  }
  param {
    lr_mult: 2
    decay_mult: 0
  }
  convolution_param {
    num_output: 64
    pad: 0
    kernel_size: 1
    stride: 1
    weight_filler {
      type: "msra"
    }
    bias_filler {
      type: "constant"
      value: 0
    }
  }
}
layer {
  name: "map16_13_eltsum"
  type: "Eltwise"
  bottom: "map16_12_eltsum"
  bottom: "map16_13_conv_end"
  top: "map16_13_eltsum"
  eltwise_param {
    operation: SUM
  }
}
layer {
  name: "map16_14_bn_pre"
  type: "BatchNorm"
  bottom: "map16_13_eltsum"
  top: "map16_14_bn_pre"
  param {
    lr_mult: 0
    decay_mult: 0
  }
  param {
    lr_mult: 0
    decay_mult: 0
  }
  param {
    lr_mult: 0
    decay_mult: 0
  }
  include {
    phase: TRAIN
  }
  batch_norm_param {
    use_global_stats: false
  }
}
layer {
  name: "map16_14_bn_pre"
  type: "BatchNorm"
  bottom: "map16_13_eltsum"
  top: "map16_14_bn_pre"
  param {
    lr_mult: 0
    decay_mult: 0
  }
  param {
    lr_mult: 0
    decay_mult: 0
  }
  param {
    lr_mult: 0
    decay_mult: 0
  }
  include {
    phase: TEST
  }
  batch_norm_param {
    use_global_stats: true
  }
}
layer {
  name: "map16_14_pre_scale"
  type: "Scale"
  bottom: "map16_14_bn_pre"
  top: "map16_14_bn_pre"
  scale_param {
    bias_term: true
  }
}
layer {
  name: "map16_14_pre_relu"
  type: "ReLU"
  bottom: "map16_14_bn_pre"
  top: "map16_14_bn_pre"
}
layer {
  name: "map16_14_conv1"
  type: "Convolution"
  bottom: "map16_14_bn_pre"
  top: "map16_14_conv1"
  param {
    lr_mult: 1
    decay_mult: 1
  }
  param {
    lr_mult: 2
    decay_mult: 0
  }
  convolution_param {
    num_output: 16
    pad: 0
    kernel_size: 1
    stride: 1
    weight_filler {
      type: "msra"
    }
    bias_filler {
      type: "constant"
      value: 0
    }
  }
}
layer {
  name: "map16_14_bn1"
  type: "BatchNorm"
  bottom: "map16_14_conv1"
  top: "map16_14_conv1"
  param {
    lr_mult: 0
    decay_mult: 0
  }
  param {
    lr_mult: 0
    decay_mult: 0
  }
  param {
    lr_mult: 0
    decay_mult: 0
  }
  include {
    phase: TRAIN
  }
  batch_norm_param {
    use_global_stats: false
  }
}
layer {
  name: "map16_14_bn1"
  type: "BatchNorm"
  bottom: "map16_14_conv1"
  top: "map16_14_conv1"
  param {
    lr_mult: 0
    decay_mult: 0
  }
  param {
    lr_mult: 0
    decay_mult: 0
  }
  param {
    lr_mult: 0
    decay_mult: 0
  }
  include {
    phase: TEST
  }
  batch_norm_param {
    use_global_stats: true
  }
}
layer {
  name: "map16_14_scale1"
  type: "Scale"
  bottom: "map16_14_conv1"
  top: "map16_14_conv1"
  scale_param {
    bias_term: true
  }
}
layer {
  name: "map16_14_relu1"
  type: "ReLU"
  bottom: "map16_14_conv1"
  top: "map16_14_conv1"
}
layer {
  name: "map16_14_conv2"
  type: "Convolution"
  bottom: "map16_14_conv1"
  top: "map16_14_conv2"
  param {
    lr_mult: 1
    decay_mult: 1
  }
  param {
    lr_mult: 2
    decay_mult: 0
  }
  convolution_param {
    num_output: 16
    pad: 1
    kernel_size: 3
    stride: 1
    weight_filler {
      type: "msra"
    }
    bias_filler {
      type: "constant"
      value: 0
    }
  }
}
layer {
  name: "map16_14_bn2"
  type: "BatchNorm"
  bottom: "map16_14_conv2"
  top: "map16_14_conv2"
  param {
    lr_mult: 0
    decay_mult: 0
  }
  param {
    lr_mult: 0
    decay_mult: 0
  }
  param {
    lr_mult: 0
    decay_mult: 0
  }
  include {
    phase: TRAIN
  }
  batch_norm_param {
    use_global_stats: false
  }
}
layer {
  name: "map16_14_bn2"
  type: "BatchNorm"
  bottom: "map16_14_conv2"
  top: "map16_14_conv2"
  param {
    lr_mult: 0
    decay_mult: 0
  }
  param {
    lr_mult: 0
    decay_mult: 0
  }
  param {
    lr_mult: 0
    decay_mult: 0
  }
  include {
    phase: TEST
  }
  batch_norm_param {
    use_global_stats: true
  }
}
layer {
  name: "map16_14_scale2"
  type: "Scale"
  bottom: "map16_14_conv2"
  top: "map16_14_conv2"
  scale_param {
    bias_term: true
  }
}
layer {
  name: "map16_14_relu2"
  type: "ReLU"
  bottom: "map16_14_conv2"
  top: "map16_14_conv2"
}
layer {
  name: "map16_14_conv_end"
  type: "Convolution"
  bottom: "map16_14_conv2"
  top: "map16_14_conv_end"
  param {
    lr_mult: 1
    decay_mult: 1
  }
  param {
    lr_mult: 2
    decay_mult: 0
  }
  convolution_param {
    num_output: 64
    pad: 0
    kernel_size: 1
    stride: 1
    weight_filler {
      type: "msra"
    }
    bias_filler {
      type: "constant"
      value: 0
    }
  }
}
layer {
  name: "map16_14_eltsum"
  type: "Eltwise"
  bottom: "map16_13_eltsum"
  bottom: "map16_14_conv_end"
  top: "map16_14_eltsum"
  eltwise_param {
    operation: SUM
  }
}
layer {
  name: "map16_15_bn_pre"
  type: "BatchNorm"
  bottom: "map16_14_eltsum"
  top: "map16_15_bn_pre"
  param {
    lr_mult: 0
    decay_mult: 0
  }
  param {
    lr_mult: 0
    decay_mult: 0
  }
  param {
    lr_mult: 0
    decay_mult: 0
  }
  include {
    phase: TRAIN
  }
  batch_norm_param {
    use_global_stats: false
  }
}
layer {
  name: "map16_15_bn_pre"
  type: "BatchNorm"
  bottom: "map16_14_eltsum"
  top: "map16_15_bn_pre"
  param {
    lr_mult: 0
    decay_mult: 0
  }
  param {
    lr_mult: 0
    decay_mult: 0
  }
  param {
    lr_mult: 0
    decay_mult: 0
  }
  include {
    phase: TEST
  }
  batch_norm_param {
    use_global_stats: true
  }
}
layer {
  name: "map16_15_pre_scale"
  type: "Scale"
  bottom: "map16_15_bn_pre"
  top: "map16_15_bn_pre"
  scale_param {
    bias_term: true
  }
}
layer {
  name: "map16_15_pre_relu"
  type: "ReLU"
  bottom: "map16_15_bn_pre"
  top: "map16_15_bn_pre"
}
layer {
  name: "map16_15_conv1"
  type: "Convolution"
  bottom: "map16_15_bn_pre"
  top: "map16_15_conv1"
  param {
    lr_mult: 1
    decay_mult: 1
  }
  param {
    lr_mult: 2
    decay_mult: 0
  }
  convolution_param {
    num_output: 16
    pad: 0
    kernel_size: 1
    stride: 1
    weight_filler {
      type: "msra"
    }
    bias_filler {
      type: "constant"
      value: 0
    }
  }
}
layer {
  name: "map16_15_bn1"
  type: "BatchNorm"
  bottom: "map16_15_conv1"
  top: "map16_15_conv1"
  param {
    lr_mult: 0
    decay_mult: 0
  }
  param {
    lr_mult: 0
    decay_mult: 0
  }
  param {
    lr_mult: 0
    decay_mult: 0
  }
  include {
    phase: TRAIN
  }
  batch_norm_param {
    use_global_stats: false
  }
}
layer {
  name: "map16_15_bn1"
  type: "BatchNorm"
  bottom: "map16_15_conv1"
  top: "map16_15_conv1"
  param {
    lr_mult: 0
    decay_mult: 0
  }
  param {
    lr_mult: 0
    decay_mult: 0
  }
  param {
    lr_mult: 0
    decay_mult: 0
  }
  include {
    phase: TEST
  }
  batch_norm_param {
    use_global_stats: true
  }
}
layer {
  name: "map16_15_scale1"
  type: "Scale"
  bottom: "map16_15_conv1"
  top: "map16_15_conv1"
  scale_param {
    bias_term: true
  }
}
layer {
  name: "map16_15_relu1"
  type: "ReLU"
  bottom: "map16_15_conv1"
  top: "map16_15_conv1"
}
layer {
  name: "map16_15_conv2"
  type: "Convolution"
  bottom: "map16_15_conv1"
  top: "map16_15_conv2"
  param {
    lr_mult: 1
    decay_mult: 1
  }
  param {
    lr_mult: 2
    decay_mult: 0
  }
  convolution_param {
    num_output: 16
    pad: 1
    kernel_size: 3
    stride: 1
    weight_filler {
      type: "msra"
    }
    bias_filler {
      type: "constant"
      value: 0
    }
  }
}
layer {
  name: "map16_15_bn2"
  type: "BatchNorm"
  bottom: "map16_15_conv2"
  top: "map16_15_conv2"
  param {
    lr_mult: 0
    decay_mult: 0
  }
  param {
    lr_mult: 0
    decay_mult: 0
  }
  param {
    lr_mult: 0
    decay_mult: 0
  }
  include {
    phase: TRAIN
  }
  batch_norm_param {
    use_global_stats: false
  }
}
layer {
  name: "map16_15_bn2"
  type: "BatchNorm"
  bottom: "map16_15_conv2"
  top: "map16_15_conv2"
  param {
    lr_mult: 0
    decay_mult: 0
  }
  param {
    lr_mult: 0
    decay_mult: 0
  }
  param {
    lr_mult: 0
    decay_mult: 0
  }
  include {
    phase: TEST
  }
  batch_norm_param {
    use_global_stats: true
  }
}
layer {
  name: "map16_15_scale2"
  type: "Scale"
  bottom: "map16_15_conv2"
  top: "map16_15_conv2"
  scale_param {
    bias_term: true
  }
}
layer {
  name: "map16_15_relu2"
  type: "ReLU"
  bottom: "map16_15_conv2"
  top: "map16_15_conv2"
}
layer {
  name: "map16_15_conv_end"
  type: "Convolution"
  bottom: "map16_15_conv2"
  top: "map16_15_conv_end"
  param {
    lr_mult: 1
    decay_mult: 1
  }
  param {
    lr_mult: 2
    decay_mult: 0
  }
  convolution_param {
    num_output: 64
    pad: 0
    kernel_size: 1
    stride: 1
    weight_filler {
      type: "msra"
    }
    bias_filler {
      type: "constant"
      value: 0
    }
  }
}
layer {
  name: "map16_15_eltsum"
  type: "Eltwise"
  bottom: "map16_14_eltsum"
  bottom: "map16_15_conv_end"
  top: "map16_15_eltsum"
  eltwise_param {
    operation: SUM
  }
}
layer {
  name: "map16_16_bn_pre"
  type: "BatchNorm"
  bottom: "map16_15_eltsum"
  top: "map16_16_bn_pre"
  param {
    lr_mult: 0
    decay_mult: 0
  }
  param {
    lr_mult: 0
    decay_mult: 0
  }
  param {
    lr_mult: 0
    decay_mult: 0
  }
  include {
    phase: TRAIN
  }
  batch_norm_param {
    use_global_stats: false
  }
}
layer {
  name: "map16_16_bn_pre"
  type: "BatchNorm"
  bottom: "map16_15_eltsum"
  top: "map16_16_bn_pre"
  param {
    lr_mult: 0
    decay_mult: 0
  }
  param {
    lr_mult: 0
    decay_mult: 0
  }
  param {
    lr_mult: 0
    decay_mult: 0
  }
  include {
    phase: TEST
  }
  batch_norm_param {
    use_global_stats: true
  }
}
layer {
  name: "map16_16_pre_scale"
  type: "Scale"
  bottom: "map16_16_bn_pre"
  top: "map16_16_bn_pre"
  scale_param {
    bias_term: true
  }
}
layer {
  name: "map16_16_pre_relu"
  type: "ReLU"
  bottom: "map16_16_bn_pre"
  top: "map16_16_bn_pre"
}
layer {
  name: "map16_16_conv1"
  type: "Convolution"
  bottom: "map16_16_bn_pre"
  top: "map16_16_conv1"
  param {
    lr_mult: 1
    decay_mult: 1
  }
  param {
    lr_mult: 2
    decay_mult: 0
  }
  convolution_param {
    num_output: 16
    pad: 0
    kernel_size: 1
    stride: 1
    weight_filler {
      type: "msra"
    }
    bias_filler {
      type: "constant"
      value: 0
    }
  }
}
layer {
  name: "map16_16_bn1"
  type: "BatchNorm"
  bottom: "map16_16_conv1"
  top: "map16_16_conv1"
  param {
    lr_mult: 0
    decay_mult: 0
  }
  param {
    lr_mult: 0
    decay_mult: 0
  }
  param {
    lr_mult: 0
    decay_mult: 0
  }
  include {
    phase: TRAIN
  }
  batch_norm_param {
    use_global_stats: false
  }
}
layer {
  name: "map16_16_bn1"
  type: "BatchNorm"
  bottom: "map16_16_conv1"
  top: "map16_16_conv1"
  param {
    lr_mult: 0
    decay_mult: 0
  }
  param {
    lr_mult: 0
    decay_mult: 0
  }
  param {
    lr_mult: 0
    decay_mult: 0
  }
  include {
    phase: TEST
  }
  batch_norm_param {
    use_global_stats: true
  }
}
layer {
  name: "map16_16_scale1"
  type: "Scale"
  bottom: "map16_16_conv1"
  top: "map16_16_conv1"
  scale_param {
    bias_term: true
  }
}
layer {
  name: "map16_16_relu1"
  type: "ReLU"
  bottom: "map16_16_conv1"
  top: "map16_16_conv1"
}
layer {
  name: "map16_16_conv2"
  type: "Convolution"
  bottom: "map16_16_conv1"
  top: "map16_16_conv2"
  param {
    lr_mult: 1
    decay_mult: 1
  }
  param {
    lr_mult: 2
    decay_mult: 0
  }
  convolution_param {
    num_output: 16
    pad: 1
    kernel_size: 3
    stride: 1
    weight_filler {
      type: "msra"
    }
    bias_filler {
      type: "constant"
      value: 0
    }
  }
}
layer {
  name: "map16_16_bn2"
  type: "BatchNorm"
  bottom: "map16_16_conv2"
  top: "map16_16_conv2"
  param {
    lr_mult: 0
    decay_mult: 0
  }
  param {
    lr_mult: 0
    decay_mult: 0
  }
  param {
    lr_mult: 0
    decay_mult: 0
  }
  include {
    phase: TRAIN
  }
  batch_norm_param {
    use_global_stats: false
  }
}
layer {
  name: "map16_16_bn2"
  type: "BatchNorm"
  bottom: "map16_16_conv2"
  top: "map16_16_conv2"
  param {
    lr_mult: 0
    decay_mult: 0
  }
  param {
    lr_mult: 0
    decay_mult: 0
  }
  param {
    lr_mult: 0
    decay_mult: 0
  }
  include {
    phase: TEST
  }
  batch_norm_param {
    use_global_stats: true
  }
}
layer {
  name: "map16_16_scale2"
  type: "Scale"
  bottom: "map16_16_conv2"
  top: "map16_16_conv2"
  scale_param {
    bias_term: true
  }
}
layer {
  name: "map16_16_relu2"
  type: "ReLU"
  bottom: "map16_16_conv2"
  top: "map16_16_conv2"
}
layer {
  name: "map16_16_conv_end"
  type: "Convolution"
  bottom: "map16_16_conv2"
  top: "map16_16_conv_end"
  param {
    lr_mult: 1
    decay_mult: 1
  }
  param {
    lr_mult: 2
    decay_mult: 0
  }
  convolution_param {
    num_output: 64
    pad: 0
    kernel_size: 1
    stride: 1
    weight_filler {
      type: "msra"
    }
    bias_filler {
      type: "constant"
      value: 0
    }
  }
}
layer {
  name: "map16_16_eltsum"
  type: "Eltwise"
  bottom: "map16_15_eltsum"
  bottom: "map16_16_conv_end"
  top: "map16_16_eltsum"
  eltwise_param {
    operation: SUM
  }
}
layer {
  name: "map16_17_bn_pre"
  type: "BatchNorm"
  bottom: "map16_16_eltsum"
  top: "map16_17_bn_pre"
  param {
    lr_mult: 0
    decay_mult: 0
  }
  param {
    lr_mult: 0
    decay_mult: 0
  }
  param {
    lr_mult: 0
    decay_mult: 0
  }
  include {
    phase: TRAIN
  }
  batch_norm_param {
    use_global_stats: false
  }
}
layer {
  name: "map16_17_bn_pre"
  type: "BatchNorm"
  bottom: "map16_16_eltsum"
  top: "map16_17_bn_pre"
  param {
    lr_mult: 0
    decay_mult: 0
  }
  param {
    lr_mult: 0
    decay_mult: 0
  }
  param {
    lr_mult: 0
    decay_mult: 0
  }
  include {
    phase: TEST
  }
  batch_norm_param {
    use_global_stats: true
  }
}
layer {
  name: "map16_17_pre_scale"
  type: "Scale"
  bottom: "map16_17_bn_pre"
  top: "map16_17_bn_pre"
  scale_param {
    bias_term: true
  }
}
layer {
  name: "map16_17_pre_relu"
  type: "ReLU"
  bottom: "map16_17_bn_pre"
  top: "map16_17_bn_pre"
}
layer {
  name: "map16_17_conv1"
  type: "Convolution"
  bottom: "map16_17_bn_pre"
  top: "map16_17_conv1"
  param {
    lr_mult: 1
    decay_mult: 1
  }
  param {
    lr_mult: 2
    decay_mult: 0
  }
  convolution_param {
    num_output: 16
    pad: 0
    kernel_size: 1
    stride: 1
    weight_filler {
      type: "msra"
    }
    bias_filler {
      type: "constant"
      value: 0
    }
  }
}
layer {
  name: "map16_17_bn1"
  type: "BatchNorm"
  bottom: "map16_17_conv1"
  top: "map16_17_conv1"
  param {
    lr_mult: 0
    decay_mult: 0
  }
  param {
    lr_mult: 0
    decay_mult: 0
  }
  param {
    lr_mult: 0
    decay_mult: 0
  }
  include {
    phase: TRAIN
  }
  batch_norm_param {
    use_global_stats: false
  }
}
layer {
  name: "map16_17_bn1"
  type: "BatchNorm"
  bottom: "map16_17_conv1"
  top: "map16_17_conv1"
  param {
    lr_mult: 0
    decay_mult: 0
  }
  param {
    lr_mult: 0
    decay_mult: 0
  }
  param {
    lr_mult: 0
    decay_mult: 0
  }
  include {
    phase: TEST
  }
  batch_norm_param {
    use_global_stats: true
  }
}
layer {
  name: "map16_17_scale1"
  type: "Scale"
  bottom: "map16_17_conv1"
  top: "map16_17_conv1"
  scale_param {
    bias_term: true
  }
}
layer {
  name: "map16_17_relu1"
  type: "ReLU"
  bottom: "map16_17_conv1"
  top: "map16_17_conv1"
}
layer {
  name: "map16_17_conv2"
  type: "Convolution"
  bottom: "map16_17_conv1"
  top: "map16_17_conv2"
  param {
    lr_mult: 1
    decay_mult: 1
  }
  param {
    lr_mult: 2
    decay_mult: 0
  }
  convolution_param {
    num_output: 16
    pad: 1
    kernel_size: 3
    stride: 1
    weight_filler {
      type: "msra"
    }
    bias_filler {
      type: "constant"
      value: 0
    }
  }
}
layer {
  name: "map16_17_bn2"
  type: "BatchNorm"
  bottom: "map16_17_conv2"
  top: "map16_17_conv2"
  param {
    lr_mult: 0
    decay_mult: 0
  }
  param {
    lr_mult: 0
    decay_mult: 0
  }
  param {
    lr_mult: 0
    decay_mult: 0
  }
  include {
    phase: TRAIN
  }
  batch_norm_param {
    use_global_stats: false
  }
}
layer {
  name: "map16_17_bn2"
  type: "BatchNorm"
  bottom: "map16_17_conv2"
  top: "map16_17_conv2"
  param {
    lr_mult: 0
    decay_mult: 0
  }
  param {
    lr_mult: 0
    decay_mult: 0
  }
  param {
    lr_mult: 0
    decay_mult: 0
  }
  include {
    phase: TEST
  }
  batch_norm_param {
    use_global_stats: true
  }
}
layer {
  name: "map16_17_scale2"
  type: "Scale"
  bottom: "map16_17_conv2"
  top: "map16_17_conv2"
  scale_param {
    bias_term: true
  }
}
layer {
  name: "map16_17_relu2"
  type: "ReLU"
  bottom: "map16_17_conv2"
  top: "map16_17_conv2"
}
layer {
  name: "map16_17_conv_end"
  type: "Convolution"
  bottom: "map16_17_conv2"
  top: "map16_17_conv_end"
  param {
    lr_mult: 1
    decay_mult: 1
  }
  param {
    lr_mult: 2
    decay_mult: 0
  }
  convolution_param {
    num_output: 64
    pad: 0
    kernel_size: 1
    stride: 1
    weight_filler {
      type: "msra"
    }
    bias_filler {
      type: "constant"
      value: 0
    }
  }
}
layer {
  name: "map16_17_eltsum"
  type: "Eltwise"
  bottom: "map16_16_eltsum"
  bottom: "map16_17_conv_end"
  top: "map16_17_eltsum"
  eltwise_param {
    operation: SUM
  }
}
layer {
  name: "map16_18_bn_pre"
  type: "BatchNorm"
  bottom: "map16_17_eltsum"
  top: "map16_18_bn_pre"
  param {
    lr_mult: 0
    decay_mult: 0
  }
  param {
    lr_mult: 0
    decay_mult: 0
  }
  param {
    lr_mult: 0
    decay_mult: 0
  }
  include {
    phase: TRAIN
  }
  batch_norm_param {
    use_global_stats: false
  }
}
layer {
  name: "map16_18_bn_pre"
  type: "BatchNorm"
  bottom: "map16_17_eltsum"
  top: "map16_18_bn_pre"
  param {
    lr_mult: 0
    decay_mult: 0
  }
  param {
    lr_mult: 0
    decay_mult: 0
  }
  param {
    lr_mult: 0
    decay_mult: 0
  }
  include {
    phase: TEST
  }
  batch_norm_param {
    use_global_stats: true
  }
}
layer {
  name: "map16_18_pre_scale"
  type: "Scale"
  bottom: "map16_18_bn_pre"
  top: "map16_18_bn_pre"
  scale_param {
    bias_term: true
  }
}
layer {
  name: "map16_18_pre_relu"
  type: "ReLU"
  bottom: "map16_18_bn_pre"
  top: "map16_18_bn_pre"
}
layer {
  name: "map16_18_conv1"
  type: "Convolution"
  bottom: "map16_18_bn_pre"
  top: "map16_18_conv1"
  param {
    lr_mult: 1
    decay_mult: 1
  }
  param {
    lr_mult: 2
    decay_mult: 0
  }
  convolution_param {
    num_output: 16
    pad: 0
    kernel_size: 1
    stride: 1
    weight_filler {
      type: "msra"
    }
    bias_filler {
      type: "constant"
      value: 0
    }
  }
}
layer {
  name: "map16_18_bn1"
  type: "BatchNorm"
  bottom: "map16_18_conv1"
  top: "map16_18_conv1"
  param {
    lr_mult: 0
    decay_mult: 0
  }
  param {
    lr_mult: 0
    decay_mult: 0
  }
  param {
    lr_mult: 0
    decay_mult: 0
  }
  include {
    phase: TRAIN
  }
  batch_norm_param {
    use_global_stats: false
  }
}
layer {
  name: "map16_18_bn1"
  type: "BatchNorm"
  bottom: "map16_18_conv1"
  top: "map16_18_conv1"
  param {
    lr_mult: 0
    decay_mult: 0
  }
  param {
    lr_mult: 0
    decay_mult: 0
  }
  param {
    lr_mult: 0
    decay_mult: 0
  }
  include {
    phase: TEST
  }
  batch_norm_param {
    use_global_stats: true
  }
}
layer {
  name: "map16_18_scale1"
  type: "Scale"
  bottom: "map16_18_conv1"
  top: "map16_18_conv1"
  scale_param {
    bias_term: true
  }
}
layer {
  name: "map16_18_relu1"
  type: "ReLU"
  bottom: "map16_18_conv1"
  top: "map16_18_conv1"
}
layer {
  name: "map16_18_conv2"
  type: "Convolution"
  bottom: "map16_18_conv1"
  top: "map16_18_conv2"
  param {
    lr_mult: 1
    decay_mult: 1
  }
  param {
    lr_mult: 2
    decay_mult: 0
  }
  convolution_param {
    num_output: 16
    pad: 1
    kernel_size: 3
    stride: 1
    weight_filler {
      type: "msra"
    }
    bias_filler {
      type: "constant"
      value: 0
    }
  }
}
layer {
  name: "map16_18_bn2"
  type: "BatchNorm"
  bottom: "map16_18_conv2"
  top: "map16_18_conv2"
  param {
    lr_mult: 0
    decay_mult: 0
  }
  param {
    lr_mult: 0
    decay_mult: 0
  }
  param {
    lr_mult: 0
    decay_mult: 0
  }
  include {
    phase: TRAIN
  }
  batch_norm_param {
    use_global_stats: false
  }
}
layer {
  name: "map16_18_bn2"
  type: "BatchNorm"
  bottom: "map16_18_conv2"
  top: "map16_18_conv2"
  param {
    lr_mult: 0
    decay_mult: 0
  }
  param {
    lr_mult: 0
    decay_mult: 0
  }
  param {
    lr_mult: 0
    decay_mult: 0
  }
  include {
    phase: TEST
  }
  batch_norm_param {
    use_global_stats: true
  }
}
layer {
  name: "map16_18_scale2"
  type: "Scale"
  bottom: "map16_18_conv2"
  top: "map16_18_conv2"
  scale_param {
    bias_term: true
  }
}
layer {
  name: "map16_18_relu2"
  type: "ReLU"
  bottom: "map16_18_conv2"
  top: "map16_18_conv2"
}
layer {
  name: "map16_18_conv_end"
  type: "Convolution"
  bottom: "map16_18_conv2"
  top: "map16_18_conv_end"
  param {
    lr_mult: 1
    decay_mult: 1
  }
  param {
    lr_mult: 2
    decay_mult: 0
  }
  convolution_param {
    num_output: 64
    pad: 0
    kernel_size: 1
    stride: 1
    weight_filler {
      type: "msra"
    }
    bias_filler {
      type: "constant"
      value: 0
    }
  }
}
layer {
  name: "map16_18_eltsum"
  type: "Eltwise"
  bottom: "map16_17_eltsum"
  bottom: "map16_18_conv_end"
  top: "map16_18_eltsum"
  eltwise_param {
    operation: SUM
  }
}
layer {
  name: "map16_19_bn_pre"
  type: "BatchNorm"
  bottom: "map16_18_eltsum"
  top: "map16_19_bn_pre"
  param {
    lr_mult: 0
    decay_mult: 0
  }
  param {
    lr_mult: 0
    decay_mult: 0
  }
  param {
    lr_mult: 0
    decay_mult: 0
  }
  include {
    phase: TRAIN
  }
  batch_norm_param {
    use_global_stats: false
  }
}
layer {
  name: "map16_19_bn_pre"
  type: "BatchNorm"
  bottom: "map16_18_eltsum"
  top: "map16_19_bn_pre"
  param {
    lr_mult: 0
    decay_mult: 0
  }
  param {
    lr_mult: 0
    decay_mult: 0
  }
  param {
    lr_mult: 0
    decay_mult: 0
  }
  include {
    phase: TEST
  }
  batch_norm_param {
    use_global_stats: true
  }
}
layer {
  name: "map16_19_pre_scale"
  type: "Scale"
  bottom: "map16_19_bn_pre"
  top: "map16_19_bn_pre"
  scale_param {
    bias_term: true
  }
}
layer {
  name: "map16_19_pre_relu"
  type: "ReLU"
  bottom: "map16_19_bn_pre"
  top: "map16_19_bn_pre"
}
layer {
  name: "map16_19_conv1"
  type: "Convolution"
  bottom: "map16_19_bn_pre"
  top: "map16_19_conv1"
  param {
    lr_mult: 1
    decay_mult: 1
  }
  param {
    lr_mult: 2
    decay_mult: 0
  }
  convolution_param {
    num_output: 16
    pad: 0
    kernel_size: 1
    stride: 1
    weight_filler {
      type: "msra"
    }
    bias_filler {
      type: "constant"
      value: 0
    }
  }
}
layer {
  name: "map16_19_bn1"
  type: "BatchNorm"
  bottom: "map16_19_conv1"
  top: "map16_19_conv1"
  param {
    lr_mult: 0
    decay_mult: 0
  }
  param {
    lr_mult: 0
    decay_mult: 0
  }
  param {
    lr_mult: 0
    decay_mult: 0
  }
  include {
    phase: TRAIN
  }
  batch_norm_param {
    use_global_stats: false
  }
}
layer {
  name: "map16_19_bn1"
  type: "BatchNorm"
  bottom: "map16_19_conv1"
  top: "map16_19_conv1"
  param {
    lr_mult: 0
    decay_mult: 0
  }
  param {
    lr_mult: 0
    decay_mult: 0
  }
  param {
    lr_mult: 0
    decay_mult: 0
  }
  include {
    phase: TEST
  }
  batch_norm_param {
    use_global_stats: true
  }
}
layer {
  name: "map16_19_scale1"
  type: "Scale"
  bottom: "map16_19_conv1"
  top: "map16_19_conv1"
  scale_param {
    bias_term: true
  }
}
layer {
  name: "map16_19_relu1"
  type: "ReLU"
  bottom: "map16_19_conv1"
  top: "map16_19_conv1"
}
layer {
  name: "map16_19_conv2"
  type: "Convolution"
  bottom: "map16_19_conv1"
  top: "map16_19_conv2"
  param {
    lr_mult: 1
    decay_mult: 1
  }
  param {
    lr_mult: 2
    decay_mult: 0
  }
  convolution_param {
    num_output: 16
    pad: 1
    kernel_size: 3
    stride: 1
    weight_filler {
      type: "msra"
    }
    bias_filler {
      type: "constant"
      value: 0
    }
  }
}
layer {
  name: "map16_19_bn2"
  type: "BatchNorm"
  bottom: "map16_19_conv2"
  top: "map16_19_conv2"
  param {
    lr_mult: 0
    decay_mult: 0
  }
  param {
    lr_mult: 0
    decay_mult: 0
  }
  param {
    lr_mult: 0
    decay_mult: 0
  }
  include {
    phase: TRAIN
  }
  batch_norm_param {
    use_global_stats: false
  }
}
layer {
  name: "map16_19_bn2"
  type: "BatchNorm"
  bottom: "map16_19_conv2"
  top: "map16_19_conv2"
  param {
    lr_mult: 0
    decay_mult: 0
  }
  param {
    lr_mult: 0
    decay_mult: 0
  }
  param {
    lr_mult: 0
    decay_mult: 0
  }
  include {
    phase: TEST
  }
  batch_norm_param {
    use_global_stats: true
  }
}
layer {
  name: "map16_19_scale2"
  type: "Scale"
  bottom: "map16_19_conv2"
  top: "map16_19_conv2"
  scale_param {
    bias_term: true
  }
}
layer {
  name: "map16_19_relu2"
  type: "ReLU"
  bottom: "map16_19_conv2"
  top: "map16_19_conv2"
}
layer {
  name: "map16_19_conv_end"
  type: "Convolution"
  bottom: "map16_19_conv2"
  top: "map16_19_conv_end"
  param {
    lr_mult: 1
    decay_mult: 1
  }
  param {
    lr_mult: 2
    decay_mult: 0
  }
  convolution_param {
    num_output: 64
    pad: 0
    kernel_size: 1
    stride: 1
    weight_filler {
      type: "msra"
    }
    bias_filler {
      type: "constant"
      value: 0
    }
  }
}
layer {
  name: "map16_19_eltsum"
  type: "Eltwise"
  bottom: "map16_18_eltsum"
  bottom: "map16_19_conv_end"
  top: "map16_19_eltsum"
  eltwise_param {
    operation: SUM
  }
}
layer {
  name: "map16_20_bn_pre"
  type: "BatchNorm"
  bottom: "map16_19_eltsum"
  top: "map16_20_bn_pre"
  param {
    lr_mult: 0
    decay_mult: 0
  }
  param {
    lr_mult: 0
    decay_mult: 0
  }
  param {
    lr_mult: 0
    decay_mult: 0
  }
  include {
    phase: TRAIN
  }
  batch_norm_param {
    use_global_stats: false
  }
}
layer {
  name: "map16_20_bn_pre"
  type: "BatchNorm"
  bottom: "map16_19_eltsum"
  top: "map16_20_bn_pre"
  param {
    lr_mult: 0
    decay_mult: 0
  }
  param {
    lr_mult: 0
    decay_mult: 0
  }
  param {
    lr_mult: 0
    decay_mult: 0
  }
  include {
    phase: TEST
  }
  batch_norm_param {
    use_global_stats: true
  }
}
layer {
  name: "map16_20_pre_scale"
  type: "Scale"
  bottom: "map16_20_bn_pre"
  top: "map16_20_bn_pre"
  scale_param {
    bias_term: true
  }
}
layer {
  name: "map16_20_pre_relu"
  type: "ReLU"
  bottom: "map16_20_bn_pre"
  top: "map16_20_bn_pre"
}
layer {
  name: "map16_20_conv1"
  type: "Convolution"
  bottom: "map16_20_bn_pre"
  top: "map16_20_conv1"
  param {
    lr_mult: 1
    decay_mult: 1
  }
  param {
    lr_mult: 2
    decay_mult: 0
  }
  convolution_param {
    num_output: 16
    pad: 0
    kernel_size: 1
    stride: 1
    weight_filler {
      type: "msra"
    }
    bias_filler {
      type: "constant"
      value: 0
    }
  }
}
layer {
  name: "map16_20_bn1"
  type: "BatchNorm"
  bottom: "map16_20_conv1"
  top: "map16_20_conv1"
  param {
    lr_mult: 0
    decay_mult: 0
  }
  param {
    lr_mult: 0
    decay_mult: 0
  }
  param {
    lr_mult: 0
    decay_mult: 0
  }
  include {
    phase: TRAIN
  }
  batch_norm_param {
    use_global_stats: false
  }
}
layer {
  name: "map16_20_bn1"
  type: "BatchNorm"
  bottom: "map16_20_conv1"
  top: "map16_20_conv1"
  param {
    lr_mult: 0
    decay_mult: 0
  }
  param {
    lr_mult: 0
    decay_mult: 0
  }
  param {
    lr_mult: 0
    decay_mult: 0
  }
  include {
    phase: TEST
  }
  batch_norm_param {
    use_global_stats: true
  }
}
layer {
  name: "map16_20_scale1"
  type: "Scale"
  bottom: "map16_20_conv1"
  top: "map16_20_conv1"
  scale_param {
    bias_term: true
  }
}
layer {
  name: "map16_20_relu1"
  type: "ReLU"
  bottom: "map16_20_conv1"
  top: "map16_20_conv1"
}
layer {
  name: "map16_20_conv2"
  type: "Convolution"
  bottom: "map16_20_conv1"
  top: "map16_20_conv2"
  param {
    lr_mult: 1
    decay_mult: 1
  }
  param {
    lr_mult: 2
    decay_mult: 0
  }
  convolution_param {
    num_output: 16
    pad: 1
    kernel_size: 3
    stride: 1
    weight_filler {
      type: "msra"
    }
    bias_filler {
      type: "constant"
      value: 0
    }
  }
}
layer {
  name: "map16_20_bn2"
  type: "BatchNorm"
  bottom: "map16_20_conv2"
  top: "map16_20_conv2"
  param {
    lr_mult: 0
    decay_mult: 0
  }
  param {
    lr_mult: 0
    decay_mult: 0
  }
  param {
    lr_mult: 0
    decay_mult: 0
  }
  include {
    phase: TRAIN
  }
  batch_norm_param {
    use_global_stats: false
  }
}
layer {
  name: "map16_20_bn2"
  type: "BatchNorm"
  bottom: "map16_20_conv2"
  top: "map16_20_conv2"
  param {
    lr_mult: 0
    decay_mult: 0
  }
  param {
    lr_mult: 0
    decay_mult: 0
  }
  param {
    lr_mult: 0
    decay_mult: 0
  }
  include {
    phase: TEST
  }
  batch_norm_param {
    use_global_stats: true
  }
}
layer {
  name: "map16_20_scale2"
  type: "Scale"
  bottom: "map16_20_conv2"
  top: "map16_20_conv2"
  scale_param {
    bias_term: true
  }
}
layer {
  name: "map16_20_relu2"
  type: "ReLU"
  bottom: "map16_20_conv2"
  top: "map16_20_conv2"
}
layer {
  name: "map16_20_conv_end"
  type: "Convolution"
  bottom: "map16_20_conv2"
  top: "map16_20_conv_end"
  param {
    lr_mult: 1
    decay_mult: 1
  }
  param {
    lr_mult: 2
    decay_mult: 0
  }
  convolution_param {
    num_output: 64
    pad: 0
    kernel_size: 1
    stride: 1
    weight_filler {
      type: "msra"
    }
    bias_filler {
      type: "constant"
      value: 0
    }
  }
}
layer {
  name: "map16_20_eltsum"
  type: "Eltwise"
  bottom: "map16_19_eltsum"
  bottom: "map16_20_conv_end"
  top: "map16_20_eltsum"
  eltwise_param {
    operation: SUM
  }
}
layer {
  name: "map16_21_bn_pre"
  type: "BatchNorm"
  bottom: "map16_20_eltsum"
  top: "map16_21_bn_pre"
  param {
    lr_mult: 0
    decay_mult: 0
  }
  param {
    lr_mult: 0
    decay_mult: 0
  }
  param {
    lr_mult: 0
    decay_mult: 0
  }
  include {
    phase: TRAIN
  }
  batch_norm_param {
    use_global_stats: false
  }
}
layer {
  name: "map16_21_bn_pre"
  type: "BatchNorm"
  bottom: "map16_20_eltsum"
  top: "map16_21_bn_pre"
  param {
    lr_mult: 0
    decay_mult: 0
  }
  param {
    lr_mult: 0
    decay_mult: 0
  }
  param {
    lr_mult: 0
    decay_mult: 0
  }
  include {
    phase: TEST
  }
  batch_norm_param {
    use_global_stats: true
  }
}
layer {
  name: "map16_21_pre_scale"
  type: "Scale"
  bottom: "map16_21_bn_pre"
  top: "map16_21_bn_pre"
  scale_param {
    bias_term: true
  }
}
layer {
  name: "map16_21_pre_relu"
  type: "ReLU"
  bottom: "map16_21_bn_pre"
  top: "map16_21_bn_pre"
}
layer {
  name: "map16_21_conv1"
  type: "Convolution"
  bottom: "map16_21_bn_pre"
  top: "map16_21_conv1"
  param {
    lr_mult: 1
    decay_mult: 1
  }
  param {
    lr_mult: 2
    decay_mult: 0
  }
  convolution_param {
    num_output: 16
    pad: 0
    kernel_size: 1
    stride: 1
    weight_filler {
      type: "msra"
    }
    bias_filler {
      type: "constant"
      value: 0
    }
  }
}
layer {
  name: "map16_21_bn1"
  type: "BatchNorm"
  bottom: "map16_21_conv1"
  top: "map16_21_conv1"
  param {
    lr_mult: 0
    decay_mult: 0
  }
  param {
    lr_mult: 0
    decay_mult: 0
  }
  param {
    lr_mult: 0
    decay_mult: 0
  }
  include {
    phase: TRAIN
  }
  batch_norm_param {
    use_global_stats: false
  }
}
layer {
  name: "map16_21_bn1"
  type: "BatchNorm"
  bottom: "map16_21_conv1"
  top: "map16_21_conv1"
  param {
    lr_mult: 0
    decay_mult: 0
  }
  param {
    lr_mult: 0
    decay_mult: 0
  }
  param {
    lr_mult: 0
    decay_mult: 0
  }
  include {
    phase: TEST
  }
  batch_norm_param {
    use_global_stats: true
  }
}
layer {
  name: "map16_21_scale1"
  type: "Scale"
  bottom: "map16_21_conv1"
  top: "map16_21_conv1"
  scale_param {
    bias_term: true
  }
}
layer {
  name: "map16_21_relu1"
  type: "ReLU"
  bottom: "map16_21_conv1"
  top: "map16_21_conv1"
}
layer {
  name: "map16_21_conv2"
  type: "Convolution"
  bottom: "map16_21_conv1"
  top: "map16_21_conv2"
  param {
    lr_mult: 1
    decay_mult: 1
  }
  param {
    lr_mult: 2
    decay_mult: 0
  }
  convolution_param {
    num_output: 16
    pad: 1
    kernel_size: 3
    stride: 1
    weight_filler {
      type: "msra"
    }
    bias_filler {
      type: "constant"
      value: 0
    }
  }
}
layer {
  name: "map16_21_bn2"
  type: "BatchNorm"
  bottom: "map16_21_conv2"
  top: "map16_21_conv2"
  param {
    lr_mult: 0
    decay_mult: 0
  }
  param {
    lr_mult: 0
    decay_mult: 0
  }
  param {
    lr_mult: 0
    decay_mult: 0
  }
  include {
    phase: TRAIN
  }
  batch_norm_param {
    use_global_stats: false
  }
}
layer {
  name: "map16_21_bn2"
  type: "BatchNorm"
  bottom: "map16_21_conv2"
  top: "map16_21_conv2"
  param {
    lr_mult: 0
    decay_mult: 0
  }
  param {
    lr_mult: 0
    decay_mult: 0
  }
  param {
    lr_mult: 0
    decay_mult: 0
  }
  include {
    phase: TEST
  }
  batch_norm_param {
    use_global_stats: true
  }
}
layer {
  name: "map16_21_scale2"
  type: "Scale"
  bottom: "map16_21_conv2"
  top: "map16_21_conv2"
  scale_param {
    bias_term: true
  }
}
layer {
  name: "map16_21_relu2"
  type: "ReLU"
  bottom: "map16_21_conv2"
  top: "map16_21_conv2"
}
layer {
  name: "map16_21_conv_end"
  type: "Convolution"
  bottom: "map16_21_conv2"
  top: "map16_21_conv_end"
  param {
    lr_mult: 1
    decay_mult: 1
  }
  param {
    lr_mult: 2
    decay_mult: 0
  }
  convolution_param {
    num_output: 64
    pad: 0
    kernel_size: 1
    stride: 1
    weight_filler {
      type: "msra"
    }
    bias_filler {
      type: "constant"
      value: 0
    }
  }
}
layer {
  name: "map16_21_eltsum"
  type: "Eltwise"
  bottom: "map16_20_eltsum"
  bottom: "map16_21_conv_end"
  top: "map16_21_eltsum"
  eltwise_param {
    operation: SUM
  }
}
layer {
  name: "map16_22_bn_pre"
  type: "BatchNorm"
  bottom: "map16_21_eltsum"
  top: "map16_22_bn_pre"
  param {
    lr_mult: 0
    decay_mult: 0
  }
  param {
    lr_mult: 0
    decay_mult: 0
  }
  param {
    lr_mult: 0
    decay_mult: 0
  }
  include {
    phase: TRAIN
  }
  batch_norm_param {
    use_global_stats: false
  }
}
layer {
  name: "map16_22_bn_pre"
  type: "BatchNorm"
  bottom: "map16_21_eltsum"
  top: "map16_22_bn_pre"
  param {
    lr_mult: 0
    decay_mult: 0
  }
  param {
    lr_mult: 0
    decay_mult: 0
  }
  param {
    lr_mult: 0
    decay_mult: 0
  }
  include {
    phase: TEST
  }
  batch_norm_param {
    use_global_stats: true
  }
}
layer {
  name: "map16_22_pre_scale"
  type: "Scale"
  bottom: "map16_22_bn_pre"
  top: "map16_22_bn_pre"
  scale_param {
    bias_term: true
  }
}
layer {
  name: "map16_22_pre_relu"
  type: "ReLU"
  bottom: "map16_22_bn_pre"
  top: "map16_22_bn_pre"
}
layer {
  name: "map16_22_conv1"
  type: "Convolution"
  bottom: "map16_22_bn_pre"
  top: "map16_22_conv1"
  param {
    lr_mult: 1
    decay_mult: 1
  }
  param {
    lr_mult: 2
    decay_mult: 0
  }
  convolution_param {
    num_output: 16
    pad: 0
    kernel_size: 1
    stride: 1
    weight_filler {
      type: "msra"
    }
    bias_filler {
      type: "constant"
      value: 0
    }
  }
}
layer {
  name: "map16_22_bn1"
  type: "BatchNorm"
  bottom: "map16_22_conv1"
  top: "map16_22_conv1"
  param {
    lr_mult: 0
    decay_mult: 0
  }
  param {
    lr_mult: 0
    decay_mult: 0
  }
  param {
    lr_mult: 0
    decay_mult: 0
  }
  include {
    phase: TRAIN
  }
  batch_norm_param {
    use_global_stats: false
  }
}
layer {
  name: "map16_22_bn1"
  type: "BatchNorm"
  bottom: "map16_22_conv1"
  top: "map16_22_conv1"
  param {
    lr_mult: 0
    decay_mult: 0
  }
  param {
    lr_mult: 0
    decay_mult: 0
  }
  param {
    lr_mult: 0
    decay_mult: 0
  }
  include {
    phase: TEST
  }
  batch_norm_param {
    use_global_stats: true
  }
}
layer {
  name: "map16_22_scale1"
  type: "Scale"
  bottom: "map16_22_conv1"
  top: "map16_22_conv1"
  scale_param {
    bias_term: true
  }
}
layer {
  name: "map16_22_relu1"
  type: "ReLU"
  bottom: "map16_22_conv1"
  top: "map16_22_conv1"
}
layer {
  name: "map16_22_conv2"
  type: "Convolution"
  bottom: "map16_22_conv1"
  top: "map16_22_conv2"
  param {
    lr_mult: 1
    decay_mult: 1
  }
  param {
    lr_mult: 2
    decay_mult: 0
  }
  convolution_param {
    num_output: 16
    pad: 1
    kernel_size: 3
    stride: 1
    weight_filler {
      type: "msra"
    }
    bias_filler {
      type: "constant"
      value: 0
    }
  }
}
layer {
  name: "map16_22_bn2"
  type: "BatchNorm"
  bottom: "map16_22_conv2"
  top: "map16_22_conv2"
  param {
    lr_mult: 0
    decay_mult: 0
  }
  param {
    lr_mult: 0
    decay_mult: 0
  }
  param {
    lr_mult: 0
    decay_mult: 0
  }
  include {
    phase: TRAIN
  }
  batch_norm_param {
    use_global_stats: false
  }
}
layer {
  name: "map16_22_bn2"
  type: "BatchNorm"
  bottom: "map16_22_conv2"
  top: "map16_22_conv2"
  param {
    lr_mult: 0
    decay_mult: 0
  }
  param {
    lr_mult: 0
    decay_mult: 0
  }
  param {
    lr_mult: 0
    decay_mult: 0
  }
  include {
    phase: TEST
  }
  batch_norm_param {
    use_global_stats: true
  }
}
layer {
  name: "map16_22_scale2"
  type: "Scale"
  bottom: "map16_22_conv2"
  top: "map16_22_conv2"
  scale_param {
    bias_term: true
  }
}
layer {
  name: "map16_22_relu2"
  type: "ReLU"
  bottom: "map16_22_conv2"
  top: "map16_22_conv2"
}
layer {
  name: "map16_22_conv_end"
  type: "Convolution"
  bottom: "map16_22_conv2"
  top: "map16_22_conv_end"
  param {
    lr_mult: 1
    decay_mult: 1
  }
  param {
    lr_mult: 2
    decay_mult: 0
  }
  convolution_param {
    num_output: 64
    pad: 0
    kernel_size: 1
    stride: 1
    weight_filler {
      type: "msra"
    }
    bias_filler {
      type: "constant"
      value: 0
    }
  }
}
layer {
  name: "map16_22_eltsum"
  type: "Eltwise"
  bottom: "map16_21_eltsum"
  bottom: "map16_22_conv_end"
  top: "map16_22_eltsum"
  eltwise_param {
    operation: SUM
  }
}
layer {
  name: "map16_23_bn_pre"
  type: "BatchNorm"
  bottom: "map16_22_eltsum"
  top: "map16_23_bn_pre"
  param {
    lr_mult: 0
    decay_mult: 0
  }
  param {
    lr_mult: 0
    decay_mult: 0
  }
  param {
    lr_mult: 0
    decay_mult: 0
  }
  include {
    phase: TRAIN
  }
  batch_norm_param {
    use_global_stats: false
  }
}
layer {
  name: "map16_23_bn_pre"
  type: "BatchNorm"
  bottom: "map16_22_eltsum"
  top: "map16_23_bn_pre"
  param {
    lr_mult: 0
    decay_mult: 0
  }
  param {
    lr_mult: 0
    decay_mult: 0
  }
  param {
    lr_mult: 0
    decay_mult: 0
  }
  include {
    phase: TEST
  }
  batch_norm_param {
    use_global_stats: true
  }
}
layer {
  name: "map16_23_pre_scale"
  type: "Scale"
  bottom: "map16_23_bn_pre"
  top: "map16_23_bn_pre"
  scale_param {
    bias_term: true
  }
}
layer {
  name: "map16_23_pre_relu"
  type: "ReLU"
  bottom: "map16_23_bn_pre"
  top: "map16_23_bn_pre"
}
layer {
  name: "map16_23_conv1"
  type: "Convolution"
  bottom: "map16_23_bn_pre"
  top: "map16_23_conv1"
  param {
    lr_mult: 1
    decay_mult: 1
  }
  param {
    lr_mult: 2
    decay_mult: 0
  }
  convolution_param {
    num_output: 16
    pad: 0
    kernel_size: 1
    stride: 1
    weight_filler {
      type: "msra"
    }
    bias_filler {
      type: "constant"
      value: 0
    }
  }
}
layer {
  name: "map16_23_bn1"
  type: "BatchNorm"
  bottom: "map16_23_conv1"
  top: "map16_23_conv1"
  param {
    lr_mult: 0
    decay_mult: 0
  }
  param {
    lr_mult: 0
    decay_mult: 0
  }
  param {
    lr_mult: 0
    decay_mult: 0
  }
  include {
    phase: TRAIN
  }
  batch_norm_param {
    use_global_stats: false
  }
}
layer {
  name: "map16_23_bn1"
  type: "BatchNorm"
  bottom: "map16_23_conv1"
  top: "map16_23_conv1"
  param {
    lr_mult: 0
    decay_mult: 0
  }
  param {
    lr_mult: 0
    decay_mult: 0
  }
  param {
    lr_mult: 0
    decay_mult: 0
  }
  include {
    phase: TEST
  }
  batch_norm_param {
    use_global_stats: true
  }
}
layer {
  name: "map16_23_scale1"
  type: "Scale"
  bottom: "map16_23_conv1"
  top: "map16_23_conv1"
  scale_param {
    bias_term: true
  }
}
layer {
  name: "map16_23_relu1"
  type: "ReLU"
  bottom: "map16_23_conv1"
  top: "map16_23_conv1"
}
layer {
  name: "map16_23_conv2"
  type: "Convolution"
  bottom: "map16_23_conv1"
  top: "map16_23_conv2"
  param {
    lr_mult: 1
    decay_mult: 1
  }
  param {
    lr_mult: 2
    decay_mult: 0
  }
  convolution_param {
    num_output: 16
    pad: 1
    kernel_size: 3
    stride: 1
    weight_filler {
      type: "msra"
    }
    bias_filler {
      type: "constant"
      value: 0
    }
  }
}
layer {
  name: "map16_23_bn2"
  type: "BatchNorm"
  bottom: "map16_23_conv2"
  top: "map16_23_conv2"
  param {
    lr_mult: 0
    decay_mult: 0
  }
  param {
    lr_mult: 0
    decay_mult: 0
  }
  param {
    lr_mult: 0
    decay_mult: 0
  }
  include {
    phase: TRAIN
  }
  batch_norm_param {
    use_global_stats: false
  }
}
layer {
  name: "map16_23_bn2"
  type: "BatchNorm"
  bottom: "map16_23_conv2"
  top: "map16_23_conv2"
  param {
    lr_mult: 0
    decay_mult: 0
  }
  param {
    lr_mult: 0
    decay_mult: 0
  }
  param {
    lr_mult: 0
    decay_mult: 0
  }
  include {
    phase: TEST
  }
  batch_norm_param {
    use_global_stats: true
  }
}
layer {
  name: "map16_23_scale2"
  type: "Scale"
  bottom: "map16_23_conv2"
  top: "map16_23_conv2"
  scale_param {
    bias_term: true
  }
}
layer {
  name: "map16_23_relu2"
  type: "ReLU"
  bottom: "map16_23_conv2"
  top: "map16_23_conv2"
}
layer {
  name: "map16_23_conv_end"
  type: "Convolution"
  bottom: "map16_23_conv2"
  top: "map16_23_conv_end"
  param {
    lr_mult: 1
    decay_mult: 1
  }
  param {
    lr_mult: 2
    decay_mult: 0
  }
  convolution_param {
    num_output: 64
    pad: 0
    kernel_size: 1
    stride: 1
    weight_filler {
      type: "msra"
    }
    bias_filler {
      type: "constant"
      value: 0
    }
  }
}
layer {
  name: "map16_23_eltsum"
  type: "Eltwise"
  bottom: "map16_22_eltsum"
  bottom: "map16_23_conv_end"
  top: "map16_23_eltsum"
  eltwise_param {
    operation: SUM
  }
}
layer {
  name: "map16_24_bn_pre"
  type: "BatchNorm"
  bottom: "map16_23_eltsum"
  top: "map16_24_bn_pre"
  param {
    lr_mult: 0
    decay_mult: 0
  }
  param {
    lr_mult: 0
    decay_mult: 0
  }
  param {
    lr_mult: 0
    decay_mult: 0
  }
  include {
    phase: TRAIN
  }
  batch_norm_param {
    use_global_stats: false
  }
}
layer {
  name: "map16_24_bn_pre"
  type: "BatchNorm"
  bottom: "map16_23_eltsum"
  top: "map16_24_bn_pre"
  param {
    lr_mult: 0
    decay_mult: 0
  }
  param {
    lr_mult: 0
    decay_mult: 0
  }
  param {
    lr_mult: 0
    decay_mult: 0
  }
  include {
    phase: TEST
  }
  batch_norm_param {
    use_global_stats: true
  }
}
layer {
  name: "map16_24_pre_scale"
  type: "Scale"
  bottom: "map16_24_bn_pre"
  top: "map16_24_bn_pre"
  scale_param {
    bias_term: true
  }
}
layer {
  name: "map16_24_pre_relu"
  type: "ReLU"
  bottom: "map16_24_bn_pre"
  top: "map16_24_bn_pre"
}
layer {
  name: "map16_24_conv1"
  type: "Convolution"
  bottom: "map16_24_bn_pre"
  top: "map16_24_conv1"
  param {
    lr_mult: 1
    decay_mult: 1
  }
  param {
    lr_mult: 2
    decay_mult: 0
  }
  convolution_param {
    num_output: 16
    pad: 0
    kernel_size: 1
    stride: 1
    weight_filler {
      type: "msra"
    }
    bias_filler {
      type: "constant"
      value: 0
    }
  }
}
layer {
  name: "map16_24_bn1"
  type: "BatchNorm"
  bottom: "map16_24_conv1"
  top: "map16_24_conv1"
  param {
    lr_mult: 0
    decay_mult: 0
  }
  param {
    lr_mult: 0
    decay_mult: 0
  }
  param {
    lr_mult: 0
    decay_mult: 0
  }
  include {
    phase: TRAIN
  }
  batch_norm_param {
    use_global_stats: false
  }
}
layer {
  name: "map16_24_bn1"
  type: "BatchNorm"
  bottom: "map16_24_conv1"
  top: "map16_24_conv1"
  param {
    lr_mult: 0
    decay_mult: 0
  }
  param {
    lr_mult: 0
    decay_mult: 0
  }
  param {
    lr_mult: 0
    decay_mult: 0
  }
  include {
    phase: TEST
  }
  batch_norm_param {
    use_global_stats: true
  }
}
layer {
  name: "map16_24_scale1"
  type: "Scale"
  bottom: "map16_24_conv1"
  top: "map16_24_conv1"
  scale_param {
    bias_term: true
  }
}
layer {
  name: "map16_24_relu1"
  type: "ReLU"
  bottom: "map16_24_conv1"
  top: "map16_24_conv1"
}
layer {
  name: "map16_24_conv2"
  type: "Convolution"
  bottom: "map16_24_conv1"
  top: "map16_24_conv2"
  param {
    lr_mult: 1
    decay_mult: 1
  }
  param {
    lr_mult: 2
    decay_mult: 0
  }
  convolution_param {
    num_output: 16
    pad: 1
    kernel_size: 3
    stride: 1
    weight_filler {
      type: "msra"
    }
    bias_filler {
      type: "constant"
      value: 0
    }
  }
}
layer {
  name: "map16_24_bn2"
  type: "BatchNorm"
  bottom: "map16_24_conv2"
  top: "map16_24_conv2"
  param {
    lr_mult: 0
    decay_mult: 0
  }
  param {
    lr_mult: 0
    decay_mult: 0
  }
  param {
    lr_mult: 0
    decay_mult: 0
  }
  include {
    phase: TRAIN
  }
  batch_norm_param {
    use_global_stats: false
  }
}
layer {
  name: "map16_24_bn2"
  type: "BatchNorm"
  bottom: "map16_24_conv2"
  top: "map16_24_conv2"
  param {
    lr_mult: 0
    decay_mult: 0
  }
  param {
    lr_mult: 0
    decay_mult: 0
  }
  param {
    lr_mult: 0
    decay_mult: 0
  }
  include {
    phase: TEST
  }
  batch_norm_param {
    use_global_stats: true
  }
}
layer {
  name: "map16_24_scale2"
  type: "Scale"
  bottom: "map16_24_conv2"
  top: "map16_24_conv2"
  scale_param {
    bias_term: true
  }
}
layer {
  name: "map16_24_relu2"
  type: "ReLU"
  bottom: "map16_24_conv2"
  top: "map16_24_conv2"
}
layer {
  name: "map16_24_conv_end"
  type: "Convolution"
  bottom: "map16_24_conv2"
  top: "map16_24_conv_end"
  param {
    lr_mult: 1
    decay_mult: 1
  }
  param {
    lr_mult: 2
    decay_mult: 0
  }
  convolution_param {
    num_output: 64
    pad: 0
    kernel_size: 1
    stride: 1
    weight_filler {
      type: "msra"
    }
    bias_filler {
      type: "constant"
      value: 0
    }
  }
}
layer {
  name: "map16_24_eltsum"
  type: "Eltwise"
  bottom: "map16_23_eltsum"
  bottom: "map16_24_conv_end"
  top: "map16_24_eltsum"
  eltwise_param {
    operation: SUM
  }
}
layer {
  name: "map16_25_bn_pre"
  type: "BatchNorm"
  bottom: "map16_24_eltsum"
  top: "map16_25_bn_pre"
  param {
    lr_mult: 0
    decay_mult: 0
  }
  param {
    lr_mult: 0
    decay_mult: 0
  }
  param {
    lr_mult: 0
    decay_mult: 0
  }
  include {
    phase: TRAIN
  }
  batch_norm_param {
    use_global_stats: false
  }
}
layer {
  name: "map16_25_bn_pre"
  type: "BatchNorm"
  bottom: "map16_24_eltsum"
  top: "map16_25_bn_pre"
  param {
    lr_mult: 0
    decay_mult: 0
  }
  param {
    lr_mult: 0
    decay_mult: 0
  }
  param {
    lr_mult: 0
    decay_mult: 0
  }
  include {
    phase: TEST
  }
  batch_norm_param {
    use_global_stats: true
  }
}
layer {
  name: "map16_25_pre_scale"
  type: "Scale"
  bottom: "map16_25_bn_pre"
  top: "map16_25_bn_pre"
  scale_param {
    bias_term: true
  }
}
layer {
  name: "map16_25_pre_relu"
  type: "ReLU"
  bottom: "map16_25_bn_pre"
  top: "map16_25_bn_pre"
}
layer {
  name: "map16_25_conv1"
  type: "Convolution"
  bottom: "map16_25_bn_pre"
  top: "map16_25_conv1"
  param {
    lr_mult: 1
    decay_mult: 1
  }
  param {
    lr_mult: 2
    decay_mult: 0
  }
  convolution_param {
    num_output: 16
    pad: 0
    kernel_size: 1
    stride: 1
    weight_filler {
      type: "msra"
    }
    bias_filler {
      type: "constant"
      value: 0
    }
  }
}
layer {
  name: "map16_25_bn1"
  type: "BatchNorm"
  bottom: "map16_25_conv1"
  top: "map16_25_conv1"
  param {
    lr_mult: 0
    decay_mult: 0
  }
  param {
    lr_mult: 0
    decay_mult: 0
  }
  param {
    lr_mult: 0
    decay_mult: 0
  }
  include {
    phase: TRAIN
  }
  batch_norm_param {
    use_global_stats: false
  }
}
layer {
  name: "map16_25_bn1"
  type: "BatchNorm"
  bottom: "map16_25_conv1"
  top: "map16_25_conv1"
  param {
    lr_mult: 0
    decay_mult: 0
  }
  param {
    lr_mult: 0
    decay_mult: 0
  }
  param {
    lr_mult: 0
    decay_mult: 0
  }
  include {
    phase: TEST
  }
  batch_norm_param {
    use_global_stats: true
  }
}
layer {
  name: "map16_25_scale1"
  type: "Scale"
  bottom: "map16_25_conv1"
  top: "map16_25_conv1"
  scale_param {
    bias_term: true
  }
}
layer {
  name: "map16_25_relu1"
  type: "ReLU"
  bottom: "map16_25_conv1"
  top: "map16_25_conv1"
}
layer {
  name: "map16_25_conv2"
  type: "Convolution"
  bottom: "map16_25_conv1"
  top: "map16_25_conv2"
  param {
    lr_mult: 1
    decay_mult: 1
  }
  param {
    lr_mult: 2
    decay_mult: 0
  }
  convolution_param {
    num_output: 16
    pad: 1
    kernel_size: 3
    stride: 1
    weight_filler {
      type: "msra"
    }
    bias_filler {
      type: "constant"
      value: 0
    }
  }
}
layer {
  name: "map16_25_bn2"
  type: "BatchNorm"
  bottom: "map16_25_conv2"
  top: "map16_25_conv2"
  param {
    lr_mult: 0
    decay_mult: 0
  }
  param {
    lr_mult: 0
    decay_mult: 0
  }
  param {
    lr_mult: 0
    decay_mult: 0
  }
  include {
    phase: TRAIN
  }
  batch_norm_param {
    use_global_stats: false
  }
}
layer {
  name: "map16_25_bn2"
  type: "BatchNorm"
  bottom: "map16_25_conv2"
  top: "map16_25_conv2"
  param {
    lr_mult: 0
    decay_mult: 0
  }
  param {
    lr_mult: 0
    decay_mult: 0
  }
  param {
    lr_mult: 0
    decay_mult: 0
  }
  include {
    phase: TEST
  }
  batch_norm_param {
    use_global_stats: true
  }
}
layer {
  name: "map16_25_scale2"
  type: "Scale"
  bottom: "map16_25_conv2"
  top: "map16_25_conv2"
  scale_param {
    bias_term: true
  }
}
layer {
  name: "map16_25_relu2"
  type: "ReLU"
  bottom: "map16_25_conv2"
  top: "map16_25_conv2"
}
layer {
  name: "map16_25_conv_end"
  type: "Convolution"
  bottom: "map16_25_conv2"
  top: "map16_25_conv_end"
  param {
    lr_mult: 1
    decay_mult: 1
  }
  param {
    lr_mult: 2
    decay_mult: 0
  }
  convolution_param {
    num_output: 64
    pad: 0
    kernel_size: 1
    stride: 1
    weight_filler {
      type: "msra"
    }
    bias_filler {
      type: "constant"
      value: 0
    }
  }
}
layer {
  name: "map16_25_eltsum"
  type: "Eltwise"
  bottom: "map16_24_eltsum"
  bottom: "map16_25_conv_end"
  top: "map16_25_eltsum"
  eltwise_param {
    operation: SUM
  }
}
layer {
  name: "map16_26_bn_pre"
  type: "BatchNorm"
  bottom: "map16_25_eltsum"
  top: "map16_26_bn_pre"
  param {
    lr_mult: 0
    decay_mult: 0
  }
  param {
    lr_mult: 0
    decay_mult: 0
  }
  param {
    lr_mult: 0
    decay_mult: 0
  }
  include {
    phase: TRAIN
  }
  batch_norm_param {
    use_global_stats: false
  }
}
layer {
  name: "map16_26_bn_pre"
  type: "BatchNorm"
  bottom: "map16_25_eltsum"
  top: "map16_26_bn_pre"
  param {
    lr_mult: 0
    decay_mult: 0
  }
  param {
    lr_mult: 0
    decay_mult: 0
  }
  param {
    lr_mult: 0
    decay_mult: 0
  }
  include {
    phase: TEST
  }
  batch_norm_param {
    use_global_stats: true
  }
}
layer {
  name: "map16_26_pre_scale"
  type: "Scale"
  bottom: "map16_26_bn_pre"
  top: "map16_26_bn_pre"
  scale_param {
    bias_term: true
  }
}
layer {
  name: "map16_26_pre_relu"
  type: "ReLU"
  bottom: "map16_26_bn_pre"
  top: "map16_26_bn_pre"
}
layer {
  name: "map16_26_conv1"
  type: "Convolution"
  bottom: "map16_26_bn_pre"
  top: "map16_26_conv1"
  param {
    lr_mult: 1
    decay_mult: 1
  }
  param {
    lr_mult: 2
    decay_mult: 0
  }
  convolution_param {
    num_output: 16
    pad: 0
    kernel_size: 1
    stride: 1
    weight_filler {
      type: "msra"
    }
    bias_filler {
      type: "constant"
      value: 0
    }
  }
}
layer {
  name: "map16_26_bn1"
  type: "BatchNorm"
  bottom: "map16_26_conv1"
  top: "map16_26_conv1"
  param {
    lr_mult: 0
    decay_mult: 0
  }
  param {
    lr_mult: 0
    decay_mult: 0
  }
  param {
    lr_mult: 0
    decay_mult: 0
  }
  include {
    phase: TRAIN
  }
  batch_norm_param {
    use_global_stats: false
  }
}
layer {
  name: "map16_26_bn1"
  type: "BatchNorm"
  bottom: "map16_26_conv1"
  top: "map16_26_conv1"
  param {
    lr_mult: 0
    decay_mult: 0
  }
  param {
    lr_mult: 0
    decay_mult: 0
  }
  param {
    lr_mult: 0
    decay_mult: 0
  }
  include {
    phase: TEST
  }
  batch_norm_param {
    use_global_stats: true
  }
}
layer {
  name: "map16_26_scale1"
  type: "Scale"
  bottom: "map16_26_conv1"
  top: "map16_26_conv1"
  scale_param {
    bias_term: true
  }
}
layer {
  name: "map16_26_relu1"
  type: "ReLU"
  bottom: "map16_26_conv1"
  top: "map16_26_conv1"
}
layer {
  name: "map16_26_conv2"
  type: "Convolution"
  bottom: "map16_26_conv1"
  top: "map16_26_conv2"
  param {
    lr_mult: 1
    decay_mult: 1
  }
  param {
    lr_mult: 2
    decay_mult: 0
  }
  convolution_param {
    num_output: 16
    pad: 1
    kernel_size: 3
    stride: 1
    weight_filler {
      type: "msra"
    }
    bias_filler {
      type: "constant"
      value: 0
    }
  }
}
layer {
  name: "map16_26_bn2"
  type: "BatchNorm"
  bottom: "map16_26_conv2"
  top: "map16_26_conv2"
  param {
    lr_mult: 0
    decay_mult: 0
  }
  param {
    lr_mult: 0
    decay_mult: 0
  }
  param {
    lr_mult: 0
    decay_mult: 0
  }
  include {
    phase: TRAIN
  }
  batch_norm_param {
    use_global_stats: false
  }
}
layer {
  name: "map16_26_bn2"
  type: "BatchNorm"
  bottom: "map16_26_conv2"
  top: "map16_26_conv2"
  param {
    lr_mult: 0
    decay_mult: 0
  }
  param {
    lr_mult: 0
    decay_mult: 0
  }
  param {
    lr_mult: 0
    decay_mult: 0
  }
  include {
    phase: TEST
  }
  batch_norm_param {
    use_global_stats: true
  }
}
layer {
  name: "map16_26_scale2"
  type: "Scale"
  bottom: "map16_26_conv2"
  top: "map16_26_conv2"
  scale_param {
    bias_term: true
  }
}
layer {
  name: "map16_26_relu2"
  type: "ReLU"
  bottom: "map16_26_conv2"
  top: "map16_26_conv2"
}
layer {
  name: "map16_26_conv_end"
  type: "Convolution"
  bottom: "map16_26_conv2"
  top: "map16_26_conv_end"
  param {
    lr_mult: 1
    decay_mult: 1
  }
  param {
    lr_mult: 2
    decay_mult: 0
  }
  convolution_param {
    num_output: 64
    pad: 0
    kernel_size: 1
    stride: 1
    weight_filler {
      type: "msra"
    }
    bias_filler {
      type: "constant"
      value: 0
    }
  }
}
layer {
  name: "map16_26_eltsum"
  type: "Eltwise"
  bottom: "map16_25_eltsum"
  bottom: "map16_26_conv_end"
  top: "map16_26_eltsum"
  eltwise_param {
    operation: SUM
  }
}
layer {
  name: "map16_27_bn_pre"
  type: "BatchNorm"
  bottom: "map16_26_eltsum"
  top: "map16_27_bn_pre"
  param {
    lr_mult: 0
    decay_mult: 0
  }
  param {
    lr_mult: 0
    decay_mult: 0
  }
  param {
    lr_mult: 0
    decay_mult: 0
  }
  include {
    phase: TRAIN
  }
  batch_norm_param {
    use_global_stats: false
  }
}
layer {
  name: "map16_27_bn_pre"
  type: "BatchNorm"
  bottom: "map16_26_eltsum"
  top: "map16_27_bn_pre"
  param {
    lr_mult: 0
    decay_mult: 0
  }
  param {
    lr_mult: 0
    decay_mult: 0
  }
  param {
    lr_mult: 0
    decay_mult: 0
  }
  include {
    phase: TEST
  }
  batch_norm_param {
    use_global_stats: true
  }
}
layer {
  name: "map16_27_pre_scale"
  type: "Scale"
  bottom: "map16_27_bn_pre"
  top: "map16_27_bn_pre"
  scale_param {
    bias_term: true
  }
}
layer {
  name: "map16_27_pre_relu"
  type: "ReLU"
  bottom: "map16_27_bn_pre"
  top: "map16_27_bn_pre"
}
layer {
  name: "map16_27_conv1"
  type: "Convolution"
  bottom: "map16_27_bn_pre"
  top: "map16_27_conv1"
  param {
    lr_mult: 1
    decay_mult: 1
  }
  param {
    lr_mult: 2
    decay_mult: 0
  }
  convolution_param {
    num_output: 16
    pad: 0
    kernel_size: 1
    stride: 1
    weight_filler {
      type: "msra"
    }
    bias_filler {
      type: "constant"
      value: 0
    }
  }
}
layer {
  name: "map16_27_bn1"
  type: "BatchNorm"
  bottom: "map16_27_conv1"
  top: "map16_27_conv1"
  param {
    lr_mult: 0
    decay_mult: 0
  }
  param {
    lr_mult: 0
    decay_mult: 0
  }
  param {
    lr_mult: 0
    decay_mult: 0
  }
  include {
    phase: TRAIN
  }
  batch_norm_param {
    use_global_stats: false
  }
}
layer {
  name: "map16_27_bn1"
  type: "BatchNorm"
  bottom: "map16_27_conv1"
  top: "map16_27_conv1"
  param {
    lr_mult: 0
    decay_mult: 0
  }
  param {
    lr_mult: 0
    decay_mult: 0
  }
  param {
    lr_mult: 0
    decay_mult: 0
  }
  include {
    phase: TEST
  }
  batch_norm_param {
    use_global_stats: true
  }
}
layer {
  name: "map16_27_scale1"
  type: "Scale"
  bottom: "map16_27_conv1"
  top: "map16_27_conv1"
  scale_param {
    bias_term: true
  }
}
layer {
  name: "map16_27_relu1"
  type: "ReLU"
  bottom: "map16_27_conv1"
  top: "map16_27_conv1"
}
layer {
  name: "map16_27_conv2"
  type: "Convolution"
  bottom: "map16_27_conv1"
  top: "map16_27_conv2"
  param {
    lr_mult: 1
    decay_mult: 1
  }
  param {
    lr_mult: 2
    decay_mult: 0
  }
  convolution_param {
    num_output: 16
    pad: 1
    kernel_size: 3
    stride: 1
    weight_filler {
      type: "msra"
    }
    bias_filler {
      type: "constant"
      value: 0
    }
  }
}
layer {
  name: "map16_27_bn2"
  type: "BatchNorm"
  bottom: "map16_27_conv2"
  top: "map16_27_conv2"
  param {
    lr_mult: 0
    decay_mult: 0
  }
  param {
    lr_mult: 0
    decay_mult: 0
  }
  param {
    lr_mult: 0
    decay_mult: 0
  }
  include {
    phase: TRAIN
  }
  batch_norm_param {
    use_global_stats: false
  }
}
layer {
  name: "map16_27_bn2"
  type: "BatchNorm"
  bottom: "map16_27_conv2"
  top: "map16_27_conv2"
  param {
    lr_mult: 0
    decay_mult: 0
  }
  param {
    lr_mult: 0
    decay_mult: 0
  }
  param {
    lr_mult: 0
    decay_mult: 0
  }
  include {
    phase: TEST
  }
  batch_norm_param {
    use_global_stats: true
  }
}
layer {
  name: "map16_27_scale2"
  type: "Scale"
  bottom: "map16_27_conv2"
  top: "map16_27_conv2"
  scale_param {
    bias_term: true
  }
}
layer {
  name: "map16_27_relu2"
  type: "ReLU"
  bottom: "map16_27_conv2"
  top: "map16_27_conv2"
}
layer {
  name: "map16_27_conv_end"
  type: "Convolution"
  bottom: "map16_27_conv2"
  top: "map16_27_conv_end"
  param {
    lr_mult: 1
    decay_mult: 1
  }
  param {
    lr_mult: 2
    decay_mult: 0
  }
  convolution_param {
    num_output: 64
    pad: 0
    kernel_size: 1
    stride: 1
    weight_filler {
      type: "msra"
    }
    bias_filler {
      type: "constant"
      value: 0
    }
  }
}
layer {
  name: "map16_27_eltsum"
  type: "Eltwise"
  bottom: "map16_26_eltsum"
  bottom: "map16_27_conv_end"
  top: "map16_27_eltsum"
  eltwise_param {
    operation: SUM
  }
}
layer {
  name: "map16_28_bn_pre"
  type: "BatchNorm"
  bottom: "map16_27_eltsum"
  top: "map16_28_bn_pre"
  param {
    lr_mult: 0
    decay_mult: 0
  }
  param {
    lr_mult: 0
    decay_mult: 0
  }
  param {
    lr_mult: 0
    decay_mult: 0
  }
  include {
    phase: TRAIN
  }
  batch_norm_param {
    use_global_stats: false
  }
}
layer {
  name: "map16_28_bn_pre"
  type: "BatchNorm"
  bottom: "map16_27_eltsum"
  top: "map16_28_bn_pre"
  param {
    lr_mult: 0
    decay_mult: 0
  }
  param {
    lr_mult: 0
    decay_mult: 0
  }
  param {
    lr_mult: 0
    decay_mult: 0
  }
  include {
    phase: TEST
  }
  batch_norm_param {
    use_global_stats: true
  }
}
layer {
  name: "map16_28_pre_scale"
  type: "Scale"
  bottom: "map16_28_bn_pre"
  top: "map16_28_bn_pre"
  scale_param {
    bias_term: true
  }
}
layer {
  name: "map16_28_pre_relu"
  type: "ReLU"
  bottom: "map16_28_bn_pre"
  top: "map16_28_bn_pre"
}
layer {
  name: "map16_28_conv1"
  type: "Convolution"
  bottom: "map16_28_bn_pre"
  top: "map16_28_conv1"
  param {
    lr_mult: 1
    decay_mult: 1
  }
  param {
    lr_mult: 2
    decay_mult: 0
  }
  convolution_param {
    num_output: 16
    pad: 0
    kernel_size: 1
    stride: 1
    weight_filler {
      type: "msra"
    }
    bias_filler {
      type: "constant"
      value: 0
    }
  }
}
layer {
  name: "map16_28_bn1"
  type: "BatchNorm"
  bottom: "map16_28_conv1"
  top: "map16_28_conv1"
  param {
    lr_mult: 0
    decay_mult: 0
  }
  param {
    lr_mult: 0
    decay_mult: 0
  }
  param {
    lr_mult: 0
    decay_mult: 0
  }
  include {
    phase: TRAIN
  }
  batch_norm_param {
    use_global_stats: false
  }
}
layer {
  name: "map16_28_bn1"
  type: "BatchNorm"
  bottom: "map16_28_conv1"
  top: "map16_28_conv1"
  param {
    lr_mult: 0
    decay_mult: 0
  }
  param {
    lr_mult: 0
    decay_mult: 0
  }
  param {
    lr_mult: 0
    decay_mult: 0
  }
  include {
    phase: TEST
  }
  batch_norm_param {
    use_global_stats: true
  }
}
layer {
  name: "map16_28_scale1"
  type: "Scale"
  bottom: "map16_28_conv1"
  top: "map16_28_conv1"
  scale_param {
    bias_term: true
  }
}
layer {
  name: "map16_28_relu1"
  type: "ReLU"
  bottom: "map16_28_conv1"
  top: "map16_28_conv1"
}
layer {
  name: "map16_28_conv2"
  type: "Convolution"
  bottom: "map16_28_conv1"
  top: "map16_28_conv2"
  param {
    lr_mult: 1
    decay_mult: 1
  }
  param {
    lr_mult: 2
    decay_mult: 0
  }
  convolution_param {
    num_output: 16
    pad: 1
    kernel_size: 3
    stride: 1
    weight_filler {
      type: "msra"
    }
    bias_filler {
      type: "constant"
      value: 0
    }
  }
}
layer {
  name: "map16_28_bn2"
  type: "BatchNorm"
  bottom: "map16_28_conv2"
  top: "map16_28_conv2"
  param {
    lr_mult: 0
    decay_mult: 0
  }
  param {
    lr_mult: 0
    decay_mult: 0
  }
  param {
    lr_mult: 0
    decay_mult: 0
  }
  include {
    phase: TRAIN
  }
  batch_norm_param {
    use_global_stats: false
  }
}
layer {
  name: "map16_28_bn2"
  type: "BatchNorm"
  bottom: "map16_28_conv2"
  top: "map16_28_conv2"
  param {
    lr_mult: 0
    decay_mult: 0
  }
  param {
    lr_mult: 0
    decay_mult: 0
  }
  param {
    lr_mult: 0
    decay_mult: 0
  }
  include {
    phase: TEST
  }
  batch_norm_param {
    use_global_stats: true
  }
}
layer {
  name: "map16_28_scale2"
  type: "Scale"
  bottom: "map16_28_conv2"
  top: "map16_28_conv2"
  scale_param {
    bias_term: true
  }
}
layer {
  name: "map16_28_relu2"
  type: "ReLU"
  bottom: "map16_28_conv2"
  top: "map16_28_conv2"
}
layer {
  name: "map16_28_conv_end"
  type: "Convolution"
  bottom: "map16_28_conv2"
  top: "map16_28_conv_end"
  param {
    lr_mult: 1
    decay_mult: 1
  }
  param {
    lr_mult: 2
    decay_mult: 0
  }
  convolution_param {
    num_output: 64
    pad: 0
    kernel_size: 1
    stride: 1
    weight_filler {
      type: "msra"
    }
    bias_filler {
      type: "constant"
      value: 0
    }
  }
}
layer {
  name: "map16_28_eltsum"
  type: "Eltwise"
  bottom: "map16_27_eltsum"
  bottom: "map16_28_conv_end"
  top: "map16_28_eltsum"
  eltwise_param {
    operation: SUM
  }
}
layer {
  name: "map16_29_bn_pre"
  type: "BatchNorm"
  bottom: "map16_28_eltsum"
  top: "map16_29_bn_pre"
  param {
    lr_mult: 0
    decay_mult: 0
  }
  param {
    lr_mult: 0
    decay_mult: 0
  }
  param {
    lr_mult: 0
    decay_mult: 0
  }
  include {
    phase: TRAIN
  }
  batch_norm_param {
    use_global_stats: false
  }
}
layer {
  name: "map16_29_bn_pre"
  type: "BatchNorm"
  bottom: "map16_28_eltsum"
  top: "map16_29_bn_pre"
  param {
    lr_mult: 0
    decay_mult: 0
  }
  param {
    lr_mult: 0
    decay_mult: 0
  }
  param {
    lr_mult: 0
    decay_mult: 0
  }
  include {
    phase: TEST
  }
  batch_norm_param {
    use_global_stats: true
  }
}
layer {
  name: "map16_29_pre_scale"
  type: "Scale"
  bottom: "map16_29_bn_pre"
  top: "map16_29_bn_pre"
  scale_param {
    bias_term: true
  }
}
layer {
  name: "map16_29_pre_relu"
  type: "ReLU"
  bottom: "map16_29_bn_pre"
  top: "map16_29_bn_pre"
}
layer {
  name: "map16_29_conv1"
  type: "Convolution"
  bottom: "map16_29_bn_pre"
  top: "map16_29_conv1"
  param {
    lr_mult: 1
    decay_mult: 1
  }
  param {
    lr_mult: 2
    decay_mult: 0
  }
  convolution_param {
    num_output: 16
    pad: 0
    kernel_size: 1
    stride: 1
    weight_filler {
      type: "msra"
    }
    bias_filler {
      type: "constant"
      value: 0
    }
  }
}
layer {
  name: "map16_29_bn1"
  type: "BatchNorm"
  bottom: "map16_29_conv1"
  top: "map16_29_conv1"
  param {
    lr_mult: 0
    decay_mult: 0
  }
  param {
    lr_mult: 0
    decay_mult: 0
  }
  param {
    lr_mult: 0
    decay_mult: 0
  }
  include {
    phase: TRAIN
  }
  batch_norm_param {
    use_global_stats: false
  }
}
layer {
  name: "map16_29_bn1"
  type: "BatchNorm"
  bottom: "map16_29_conv1"
  top: "map16_29_conv1"
  param {
    lr_mult: 0
    decay_mult: 0
  }
  param {
    lr_mult: 0
    decay_mult: 0
  }
  param {
    lr_mult: 0
    decay_mult: 0
  }
  include {
    phase: TEST
  }
  batch_norm_param {
    use_global_stats: true
  }
}
layer {
  name: "map16_29_scale1"
  type: "Scale"
  bottom: "map16_29_conv1"
  top: "map16_29_conv1"
  scale_param {
    bias_term: true
  }
}
layer {
  name: "map16_29_relu1"
  type: "ReLU"
  bottom: "map16_29_conv1"
  top: "map16_29_conv1"
}
layer {
  name: "map16_29_conv2"
  type: "Convolution"
  bottom: "map16_29_conv1"
  top: "map16_29_conv2"
  param {
    lr_mult: 1
    decay_mult: 1
  }
  param {
    lr_mult: 2
    decay_mult: 0
  }
  convolution_param {
    num_output: 16
    pad: 1
    kernel_size: 3
    stride: 1
    weight_filler {
      type: "msra"
    }
    bias_filler {
      type: "constant"
      value: 0
    }
  }
}
layer {
  name: "map16_29_bn2"
  type: "BatchNorm"
  bottom: "map16_29_conv2"
  top: "map16_29_conv2"
  param {
    lr_mult: 0
    decay_mult: 0
  }
  param {
    lr_mult: 0
    decay_mult: 0
  }
  param {
    lr_mult: 0
    decay_mult: 0
  }
  include {
    phase: TRAIN
  }
  batch_norm_param {
    use_global_stats: false
  }
}
layer {
  name: "map16_29_bn2"
  type: "BatchNorm"
  bottom: "map16_29_conv2"
  top: "map16_29_conv2"
  param {
    lr_mult: 0
    decay_mult: 0
  }
  param {
    lr_mult: 0
    decay_mult: 0
  }
  param {
    lr_mult: 0
    decay_mult: 0
  }
  include {
    phase: TEST
  }
  batch_norm_param {
    use_global_stats: true
  }
}
layer {
  name: "map16_29_scale2"
  type: "Scale"
  bottom: "map16_29_conv2"
  top: "map16_29_conv2"
  scale_param {
    bias_term: true
  }
}
layer {
  name: "map16_29_relu2"
  type: "ReLU"
  bottom: "map16_29_conv2"
  top: "map16_29_conv2"
}
layer {
  name: "map16_29_conv_end"
  type: "Convolution"
  bottom: "map16_29_conv2"
  top: "map16_29_conv_end"
  param {
    lr_mult: 1
    decay_mult: 1
  }
  param {
    lr_mult: 2
    decay_mult: 0
  }
  convolution_param {
    num_output: 64
    pad: 0
    kernel_size: 1
    stride: 1
    weight_filler {
      type: "msra"
    }
    bias_filler {
      type: "constant"
      value: 0
    }
  }
}
layer {
  name: "map16_29_eltsum"
  type: "Eltwise"
  bottom: "map16_28_eltsum"
  bottom: "map16_29_conv_end"
  top: "map16_29_eltsum"
  eltwise_param {
    operation: SUM
  }
}
layer {
  name: "map16_30_bn_pre"
  type: "BatchNorm"
  bottom: "map16_29_eltsum"
  top: "map16_30_bn_pre"
  param {
    lr_mult: 0
    decay_mult: 0
  }
  param {
    lr_mult: 0
    decay_mult: 0
  }
  param {
    lr_mult: 0
    decay_mult: 0
  }
  include {
    phase: TRAIN
  }
  batch_norm_param {
    use_global_stats: false
  }
}
layer {
  name: "map16_30_bn_pre"
  type: "BatchNorm"
  bottom: "map16_29_eltsum"
  top: "map16_30_bn_pre"
  param {
    lr_mult: 0
    decay_mult: 0
  }
  param {
    lr_mult: 0
    decay_mult: 0
  }
  param {
    lr_mult: 0
    decay_mult: 0
  }
  include {
    phase: TEST
  }
  batch_norm_param {
    use_global_stats: true
  }
}
layer {
  name: "map16_30_pre_scale"
  type: "Scale"
  bottom: "map16_30_bn_pre"
  top: "map16_30_bn_pre"
  scale_param {
    bias_term: true
  }
}
layer {
  name: "map16_30_pre_relu"
  type: "ReLU"
  bottom: "map16_30_bn_pre"
  top: "map16_30_bn_pre"
}
layer {
  name: "map16_30_conv1"
  type: "Convolution"
  bottom: "map16_30_bn_pre"
  top: "map16_30_conv1"
  param {
    lr_mult: 1
    decay_mult: 1
  }
  param {
    lr_mult: 2
    decay_mult: 0
  }
  convolution_param {
    num_output: 16
    pad: 0
    kernel_size: 1
    stride: 1
    weight_filler {
      type: "msra"
    }
    bias_filler {
      type: "constant"
      value: 0
    }
  }
}
layer {
  name: "map16_30_bn1"
  type: "BatchNorm"
  bottom: "map16_30_conv1"
  top: "map16_30_conv1"
  param {
    lr_mult: 0
    decay_mult: 0
  }
  param {
    lr_mult: 0
    decay_mult: 0
  }
  param {
    lr_mult: 0
    decay_mult: 0
  }
  include {
    phase: TRAIN
  }
  batch_norm_param {
    use_global_stats: false
  }
}
layer {
  name: "map16_30_bn1"
  type: "BatchNorm"
  bottom: "map16_30_conv1"
  top: "map16_30_conv1"
  param {
    lr_mult: 0
    decay_mult: 0
  }
  param {
    lr_mult: 0
    decay_mult: 0
  }
  param {
    lr_mult: 0
    decay_mult: 0
  }
  include {
    phase: TEST
  }
  batch_norm_param {
    use_global_stats: true
  }
}
layer {
  name: "map16_30_scale1"
  type: "Scale"
  bottom: "map16_30_conv1"
  top: "map16_30_conv1"
  scale_param {
    bias_term: true
  }
}
layer {
  name: "map16_30_relu1"
  type: "ReLU"
  bottom: "map16_30_conv1"
  top: "map16_30_conv1"
}
layer {
  name: "map16_30_conv2"
  type: "Convolution"
  bottom: "map16_30_conv1"
  top: "map16_30_conv2"
  param {
    lr_mult: 1
    decay_mult: 1
  }
  param {
    lr_mult: 2
    decay_mult: 0
  }
  convolution_param {
    num_output: 16
    pad: 1
    kernel_size: 3
    stride: 1
    weight_filler {
      type: "msra"
    }
    bias_filler {
      type: "constant"
      value: 0
    }
  }
}
layer {
  name: "map16_30_bn2"
  type: "BatchNorm"
  bottom: "map16_30_conv2"
  top: "map16_30_conv2"
  param {
    lr_mult: 0
    decay_mult: 0
  }
  param {
    lr_mult: 0
    decay_mult: 0
  }
  param {
    lr_mult: 0
    decay_mult: 0
  }
  include {
    phase: TRAIN
  }
  batch_norm_param {
    use_global_stats: false
  }
}
layer {
  name: "map16_30_bn2"
  type: "BatchNorm"
  bottom: "map16_30_conv2"
  top: "map16_30_conv2"
  param {
    lr_mult: 0
    decay_mult: 0
  }
  param {
    lr_mult: 0
    decay_mult: 0
  }
  param {
    lr_mult: 0
    decay_mult: 0
  }
  include {
    phase: TEST
  }
  batch_norm_param {
    use_global_stats: true
  }
}
layer {
  name: "map16_30_scale2"
  type: "Scale"
  bottom: "map16_30_conv2"
  top: "map16_30_conv2"
  scale_param {
    bias_term: true
  }
}
layer {
  name: "map16_30_relu2"
  type: "ReLU"
  bottom: "map16_30_conv2"
  top: "map16_30_conv2"
}
layer {
  name: "map16_30_conv_end"
  type: "Convolution"
  bottom: "map16_30_conv2"
  top: "map16_30_conv_end"
  param {
    lr_mult: 1
    decay_mult: 1
  }
  param {
    lr_mult: 2
    decay_mult: 0
  }
  convolution_param {
    num_output: 64
    pad: 0
    kernel_size: 1
    stride: 1
    weight_filler {
      type: "msra"
    }
    bias_filler {
      type: "constant"
      value: 0
    }
  }
}
layer {
  name: "map16_30_eltsum"
  type: "Eltwise"
  bottom: "map16_29_eltsum"
  bottom: "map16_30_conv_end"
  top: "map16_30_eltsum"
  eltwise_param {
    operation: SUM
  }
}
layer {
  name: "map16_31_bn_pre"
  type: "BatchNorm"
  bottom: "map16_30_eltsum"
  top: "map16_31_bn_pre"
  param {
    lr_mult: 0
    decay_mult: 0
  }
  param {
    lr_mult: 0
    decay_mult: 0
  }
  param {
    lr_mult: 0
    decay_mult: 0
  }
  include {
    phase: TRAIN
  }
  batch_norm_param {
    use_global_stats: false
  }
}
layer {
  name: "map16_31_bn_pre"
  type: "BatchNorm"
  bottom: "map16_30_eltsum"
  top: "map16_31_bn_pre"
  param {
    lr_mult: 0
    decay_mult: 0
  }
  param {
    lr_mult: 0
    decay_mult: 0
  }
  param {
    lr_mult: 0
    decay_mult: 0
  }
  include {
    phase: TEST
  }
  batch_norm_param {
    use_global_stats: true
  }
}
layer {
  name: "map16_31_pre_scale"
  type: "Scale"
  bottom: "map16_31_bn_pre"
  top: "map16_31_bn_pre"
  scale_param {
    bias_term: true
  }
}
layer {
  name: "map16_31_pre_relu"
  type: "ReLU"
  bottom: "map16_31_bn_pre"
  top: "map16_31_bn_pre"
}
layer {
  name: "map16_31_conv1"
  type: "Convolution"
  bottom: "map16_31_bn_pre"
  top: "map16_31_conv1"
  param {
    lr_mult: 1
    decay_mult: 1
  }
  param {
    lr_mult: 2
    decay_mult: 0
  }
  convolution_param {
    num_output: 16
    pad: 0
    kernel_size: 1
    stride: 1
    weight_filler {
      type: "msra"
    }
    bias_filler {
      type: "constant"
      value: 0
    }
  }
}
layer {
  name: "map16_31_bn1"
  type: "BatchNorm"
  bottom: "map16_31_conv1"
  top: "map16_31_conv1"
  param {
    lr_mult: 0
    decay_mult: 0
  }
  param {
    lr_mult: 0
    decay_mult: 0
  }
  param {
    lr_mult: 0
    decay_mult: 0
  }
  include {
    phase: TRAIN
  }
  batch_norm_param {
    use_global_stats: false
  }
}
layer {
  name: "map16_31_bn1"
  type: "BatchNorm"
  bottom: "map16_31_conv1"
  top: "map16_31_conv1"
  param {
    lr_mult: 0
    decay_mult: 0
  }
  param {
    lr_mult: 0
    decay_mult: 0
  }
  param {
    lr_mult: 0
    decay_mult: 0
  }
  include {
    phase: TEST
  }
  batch_norm_param {
    use_global_stats: true
  }
}
layer {
  name: "map16_31_scale1"
  type: "Scale"
  bottom: "map16_31_conv1"
  top: "map16_31_conv1"
  scale_param {
    bias_term: true
  }
}
layer {
  name: "map16_31_relu1"
  type: "ReLU"
  bottom: "map16_31_conv1"
  top: "map16_31_conv1"
}
layer {
  name: "map16_31_conv2"
  type: "Convolution"
  bottom: "map16_31_conv1"
  top: "map16_31_conv2"
  param {
    lr_mult: 1
    decay_mult: 1
  }
  param {
    lr_mult: 2
    decay_mult: 0
  }
  convolution_param {
    num_output: 16
    pad: 1
    kernel_size: 3
    stride: 1
    weight_filler {
      type: "msra"
    }
    bias_filler {
      type: "constant"
      value: 0
    }
  }
}
layer {
  name: "map16_31_bn2"
  type: "BatchNorm"
  bottom: "map16_31_conv2"
  top: "map16_31_conv2"
  param {
    lr_mult: 0
    decay_mult: 0
  }
  param {
    lr_mult: 0
    decay_mult: 0
  }
  param {
    lr_mult: 0
    decay_mult: 0
  }
  include {
    phase: TRAIN
  }
  batch_norm_param {
    use_global_stats: false
  }
}
layer {
  name: "map16_31_bn2"
  type: "BatchNorm"
  bottom: "map16_31_conv2"
  top: "map16_31_conv2"
  param {
    lr_mult: 0
    decay_mult: 0
  }
  param {
    lr_mult: 0
    decay_mult: 0
  }
  param {
    lr_mult: 0
    decay_mult: 0
  }
  include {
    phase: TEST
  }
  batch_norm_param {
    use_global_stats: true
  }
}
layer {
  name: "map16_31_scale2"
  type: "Scale"
  bottom: "map16_31_conv2"
  top: "map16_31_conv2"
  scale_param {
    bias_term: true
  }
}
layer {
  name: "map16_31_relu2"
  type: "ReLU"
  bottom: "map16_31_conv2"
  top: "map16_31_conv2"
}
layer {
  name: "map16_31_conv_end"
  type: "Convolution"
  bottom: "map16_31_conv2"
  top: "map16_31_conv_end"
  param {
    lr_mult: 1
    decay_mult: 1
  }
  param {
    lr_mult: 2
    decay_mult: 0
  }
  convolution_param {
    num_output: 64
    pad: 0
    kernel_size: 1
    stride: 1
    weight_filler {
      type: "msra"
    }
    bias_filler {
      type: "constant"
      value: 0
    }
  }
}
layer {
  name: "map16_31_eltsum"
  type: "Eltwise"
  bottom: "map16_30_eltsum"
  bottom: "map16_31_conv_end"
  top: "map16_31_eltsum"
  eltwise_param {
    operation: SUM
  }
}
layer {
  name: "map16_32_bn_pre"
  type: "BatchNorm"
  bottom: "map16_31_eltsum"
  top: "map16_32_bn_pre"
  param {
    lr_mult: 0
    decay_mult: 0
  }
  param {
    lr_mult: 0
    decay_mult: 0
  }
  param {
    lr_mult: 0
    decay_mult: 0
  }
  include {
    phase: TRAIN
  }
  batch_norm_param {
    use_global_stats: false
  }
}
layer {
  name: "map16_32_bn_pre"
  type: "BatchNorm"
  bottom: "map16_31_eltsum"
  top: "map16_32_bn_pre"
  param {
    lr_mult: 0
    decay_mult: 0
  }
  param {
    lr_mult: 0
    decay_mult: 0
  }
  param {
    lr_mult: 0
    decay_mult: 0
  }
  include {
    phase: TEST
  }
  batch_norm_param {
    use_global_stats: true
  }
}
layer {
  name: "map16_32_pre_scale"
  type: "Scale"
  bottom: "map16_32_bn_pre"
  top: "map16_32_bn_pre"
  scale_param {
    bias_term: true
  }
}
layer {
  name: "map16_32_pre_relu"
  type: "ReLU"
  bottom: "map16_32_bn_pre"
  top: "map16_32_bn_pre"
}
layer {
  name: "map16_32_conv1"
  type: "Convolution"
  bottom: "map16_32_bn_pre"
  top: "map16_32_conv1"
  param {
    lr_mult: 1
    decay_mult: 1
  }
  param {
    lr_mult: 2
    decay_mult: 0
  }
  convolution_param {
    num_output: 16
    pad: 0
    kernel_size: 1
    stride: 1
    weight_filler {
      type: "msra"
    }
    bias_filler {
      type: "constant"
      value: 0
    }
  }
}
layer {
  name: "map16_32_bn1"
  type: "BatchNorm"
  bottom: "map16_32_conv1"
  top: "map16_32_conv1"
  param {
    lr_mult: 0
    decay_mult: 0
  }
  param {
    lr_mult: 0
    decay_mult: 0
  }
  param {
    lr_mult: 0
    decay_mult: 0
  }
  include {
    phase: TRAIN
  }
  batch_norm_param {
    use_global_stats: false
  }
}
layer {
  name: "map16_32_bn1"
  type: "BatchNorm"
  bottom: "map16_32_conv1"
  top: "map16_32_conv1"
  param {
    lr_mult: 0
    decay_mult: 0
  }
  param {
    lr_mult: 0
    decay_mult: 0
  }
  param {
    lr_mult: 0
    decay_mult: 0
  }
  include {
    phase: TEST
  }
  batch_norm_param {
    use_global_stats: true
  }
}
layer {
  name: "map16_32_scale1"
  type: "Scale"
  bottom: "map16_32_conv1"
  top: "map16_32_conv1"
  scale_param {
    bias_term: true
  }
}
layer {
  name: "map16_32_relu1"
  type: "ReLU"
  bottom: "map16_32_conv1"
  top: "map16_32_conv1"
}
layer {
  name: "map16_32_conv2"
  type: "Convolution"
  bottom: "map16_32_conv1"
  top: "map16_32_conv2"
  param {
    lr_mult: 1
    decay_mult: 1
  }
  param {
    lr_mult: 2
    decay_mult: 0
  }
  convolution_param {
    num_output: 16
    pad: 1
    kernel_size: 3
    stride: 1
    weight_filler {
      type: "msra"
    }
    bias_filler {
      type: "constant"
      value: 0
    }
  }
}
layer {
  name: "map16_32_bn2"
  type: "BatchNorm"
  bottom: "map16_32_conv2"
  top: "map16_32_conv2"
  param {
    lr_mult: 0
    decay_mult: 0
  }
  param {
    lr_mult: 0
    decay_mult: 0
  }
  param {
    lr_mult: 0
    decay_mult: 0
  }
  include {
    phase: TRAIN
  }
  batch_norm_param {
    use_global_stats: false
  }
}
layer {
  name: "map16_32_bn2"
  type: "BatchNorm"
  bottom: "map16_32_conv2"
  top: "map16_32_conv2"
  param {
    lr_mult: 0
    decay_mult: 0
  }
  param {
    lr_mult: 0
    decay_mult: 0
  }
  param {
    lr_mult: 0
    decay_mult: 0
  }
  include {
    phase: TEST
  }
  batch_norm_param {
    use_global_stats: true
  }
}
layer {
  name: "map16_32_scale2"
  type: "Scale"
  bottom: "map16_32_conv2"
  top: "map16_32_conv2"
  scale_param {
    bias_term: true
  }
}
layer {
  name: "map16_32_relu2"
  type: "ReLU"
  bottom: "map16_32_conv2"
  top: "map16_32_conv2"
}
layer {
  name: "map16_32_conv_end"
  type: "Convolution"
  bottom: "map16_32_conv2"
  top: "map16_32_conv_end"
  param {
    lr_mult: 1
    decay_mult: 1
  }
  param {
    lr_mult: 2
    decay_mult: 0
  }
  convolution_param {
    num_output: 64
    pad: 0
    kernel_size: 1
    stride: 1
    weight_filler {
      type: "msra"
    }
    bias_filler {
      type: "constant"
      value: 0
    }
  }
}
layer {
  name: "map16_32_eltsum"
  type: "Eltwise"
  bottom: "map16_31_eltsum"
  bottom: "map16_32_conv_end"
  top: "map16_32_eltsum"
  eltwise_param {
    operation: SUM
  }
}
layer {
  name: "map16_33_bn_pre"
  type: "BatchNorm"
  bottom: "map16_32_eltsum"
  top: "map16_33_bn_pre"
  param {
    lr_mult: 0
    decay_mult: 0
  }
  param {
    lr_mult: 0
    decay_mult: 0
  }
  param {
    lr_mult: 0
    decay_mult: 0
  }
  include {
    phase: TRAIN
  }
  batch_norm_param {
    use_global_stats: false
  }
}
layer {
  name: "map16_33_bn_pre"
  type: "BatchNorm"
  bottom: "map16_32_eltsum"
  top: "map16_33_bn_pre"
  param {
    lr_mult: 0
    decay_mult: 0
  }
  param {
    lr_mult: 0
    decay_mult: 0
  }
  param {
    lr_mult: 0
    decay_mult: 0
  }
  include {
    phase: TEST
  }
  batch_norm_param {
    use_global_stats: true
  }
}
layer {
  name: "map16_33_pre_scale"
  type: "Scale"
  bottom: "map16_33_bn_pre"
  top: "map16_33_bn_pre"
  scale_param {
    bias_term: true
  }
}
layer {
  name: "map16_33_pre_relu"
  type: "ReLU"
  bottom: "map16_33_bn_pre"
  top: "map16_33_bn_pre"
}
layer {
  name: "map16_33_conv1"
  type: "Convolution"
  bottom: "map16_33_bn_pre"
  top: "map16_33_conv1"
  param {
    lr_mult: 1
    decay_mult: 1
  }
  param {
    lr_mult: 2
    decay_mult: 0
  }
  convolution_param {
    num_output: 16
    pad: 0
    kernel_size: 1
    stride: 1
    weight_filler {
      type: "msra"
    }
    bias_filler {
      type: "constant"
      value: 0
    }
  }
}
layer {
  name: "map16_33_bn1"
  type: "BatchNorm"
  bottom: "map16_33_conv1"
  top: "map16_33_conv1"
  param {
    lr_mult: 0
    decay_mult: 0
  }
  param {
    lr_mult: 0
    decay_mult: 0
  }
  param {
    lr_mult: 0
    decay_mult: 0
  }
  include {
    phase: TRAIN
  }
  batch_norm_param {
    use_global_stats: false
  }
}
layer {
  name: "map16_33_bn1"
  type: "BatchNorm"
  bottom: "map16_33_conv1"
  top: "map16_33_conv1"
  param {
    lr_mult: 0
    decay_mult: 0
  }
  param {
    lr_mult: 0
    decay_mult: 0
  }
  param {
    lr_mult: 0
    decay_mult: 0
  }
  include {
    phase: TEST
  }
  batch_norm_param {
    use_global_stats: true
  }
}
layer {
  name: "map16_33_scale1"
  type: "Scale"
  bottom: "map16_33_conv1"
  top: "map16_33_conv1"
  scale_param {
    bias_term: true
  }
}
layer {
  name: "map16_33_relu1"
  type: "ReLU"
  bottom: "map16_33_conv1"
  top: "map16_33_conv1"
}
layer {
  name: "map16_33_conv2"
  type: "Convolution"
  bottom: "map16_33_conv1"
  top: "map16_33_conv2"
  param {
    lr_mult: 1
    decay_mult: 1
  }
  param {
    lr_mult: 2
    decay_mult: 0
  }
  convolution_param {
    num_output: 16
    pad: 1
    kernel_size: 3
    stride: 1
    weight_filler {
      type: "msra"
    }
    bias_filler {
      type: "constant"
      value: 0
    }
  }
}
layer {
  name: "map16_33_bn2"
  type: "BatchNorm"
  bottom: "map16_33_conv2"
  top: "map16_33_conv2"
  param {
    lr_mult: 0
    decay_mult: 0
  }
  param {
    lr_mult: 0
    decay_mult: 0
  }
  param {
    lr_mult: 0
    decay_mult: 0
  }
  include {
    phase: TRAIN
  }
  batch_norm_param {
    use_global_stats: false
  }
}
layer {
  name: "map16_33_bn2"
  type: "BatchNorm"
  bottom: "map16_33_conv2"
  top: "map16_33_conv2"
  param {
    lr_mult: 0
    decay_mult: 0
  }
  param {
    lr_mult: 0
    decay_mult: 0
  }
  param {
    lr_mult: 0
    decay_mult: 0
  }
  include {
    phase: TEST
  }
  batch_norm_param {
    use_global_stats: true
  }
}
layer {
  name: "map16_33_scale2"
  type: "Scale"
  bottom: "map16_33_conv2"
  top: "map16_33_conv2"
  scale_param {
    bias_term: true
  }
}
layer {
  name: "map16_33_relu2"
  type: "ReLU"
  bottom: "map16_33_conv2"
  top: "map16_33_conv2"
}
layer {
  name: "map16_33_conv_end"
  type: "Convolution"
  bottom: "map16_33_conv2"
  top: "map16_33_conv_end"
  param {
    lr_mult: 1
    decay_mult: 1
  }
  param {
    lr_mult: 2
    decay_mult: 0
  }
  convolution_param {
    num_output: 64
    pad: 0
    kernel_size: 1
    stride: 1
    weight_filler {
      type: "msra"
    }
    bias_filler {
      type: "constant"
      value: 0
    }
  }
}
layer {
  name: "map16_33_eltsum"
  type: "Eltwise"
  bottom: "map16_32_eltsum"
  bottom: "map16_33_conv_end"
  top: "map16_33_eltsum"
  eltwise_param {
    operation: SUM
  }
}
layer {
  name: "map16_34_bn_pre"
  type: "BatchNorm"
  bottom: "map16_33_eltsum"
  top: "map16_34_bn_pre"
  param {
    lr_mult: 0
    decay_mult: 0
  }
  param {
    lr_mult: 0
    decay_mult: 0
  }
  param {
    lr_mult: 0
    decay_mult: 0
  }
  include {
    phase: TRAIN
  }
  batch_norm_param {
    use_global_stats: false
  }
}
layer {
  name: "map16_34_bn_pre"
  type: "BatchNorm"
  bottom: "map16_33_eltsum"
  top: "map16_34_bn_pre"
  param {
    lr_mult: 0
    decay_mult: 0
  }
  param {
    lr_mult: 0
    decay_mult: 0
  }
  param {
    lr_mult: 0
    decay_mult: 0
  }
  include {
    phase: TEST
  }
  batch_norm_param {
    use_global_stats: true
  }
}
layer {
  name: "map16_34_pre_scale"
  type: "Scale"
  bottom: "map16_34_bn_pre"
  top: "map16_34_bn_pre"
  scale_param {
    bias_term: true
  }
}
layer {
  name: "map16_34_pre_relu"
  type: "ReLU"
  bottom: "map16_34_bn_pre"
  top: "map16_34_bn_pre"
}
layer {
  name: "map16_34_conv1"
  type: "Convolution"
  bottom: "map16_34_bn_pre"
  top: "map16_34_conv1"
  param {
    lr_mult: 1
    decay_mult: 1
  }
  param {
    lr_mult: 2
    decay_mult: 0
  }
  convolution_param {
    num_output: 16
    pad: 0
    kernel_size: 1
    stride: 1
    weight_filler {
      type: "msra"
    }
    bias_filler {
      type: "constant"
      value: 0
    }
  }
}
layer {
  name: "map16_34_bn1"
  type: "BatchNorm"
  bottom: "map16_34_conv1"
  top: "map16_34_conv1"
  param {
    lr_mult: 0
    decay_mult: 0
  }
  param {
    lr_mult: 0
    decay_mult: 0
  }
  param {
    lr_mult: 0
    decay_mult: 0
  }
  include {
    phase: TRAIN
  }
  batch_norm_param {
    use_global_stats: false
  }
}
layer {
  name: "map16_34_bn1"
  type: "BatchNorm"
  bottom: "map16_34_conv1"
  top: "map16_34_conv1"
  param {
    lr_mult: 0
    decay_mult: 0
  }
  param {
    lr_mult: 0
    decay_mult: 0
  }
  param {
    lr_mult: 0
    decay_mult: 0
  }
  include {
    phase: TEST
  }
  batch_norm_param {
    use_global_stats: true
  }
}
layer {
  name: "map16_34_scale1"
  type: "Scale"
  bottom: "map16_34_conv1"
  top: "map16_34_conv1"
  scale_param {
    bias_term: true
  }
}
layer {
  name: "map16_34_relu1"
  type: "ReLU"
  bottom: "map16_34_conv1"
  top: "map16_34_conv1"
}
layer {
  name: "map16_34_conv2"
  type: "Convolution"
  bottom: "map16_34_conv1"
  top: "map16_34_conv2"
  param {
    lr_mult: 1
    decay_mult: 1
  }
  param {
    lr_mult: 2
    decay_mult: 0
  }
  convolution_param {
    num_output: 16
    pad: 1
    kernel_size: 3
    stride: 1
    weight_filler {
      type: "msra"
    }
    bias_filler {
      type: "constant"
      value: 0
    }
  }
}
layer {
  name: "map16_34_bn2"
  type: "BatchNorm"
  bottom: "map16_34_conv2"
  top: "map16_34_conv2"
  param {
    lr_mult: 0
    decay_mult: 0
  }
  param {
    lr_mult: 0
    decay_mult: 0
  }
  param {
    lr_mult: 0
    decay_mult: 0
  }
  include {
    phase: TRAIN
  }
  batch_norm_param {
    use_global_stats: false
  }
}
layer {
  name: "map16_34_bn2"
  type: "BatchNorm"
  bottom: "map16_34_conv2"
  top: "map16_34_conv2"
  param {
    lr_mult: 0
    decay_mult: 0
  }
  param {
    lr_mult: 0
    decay_mult: 0
  }
  param {
    lr_mult: 0
    decay_mult: 0
  }
  include {
    phase: TEST
  }
  batch_norm_param {
    use_global_stats: true
  }
}
layer {
  name: "map16_34_scale2"
  type: "Scale"
  bottom: "map16_34_conv2"
  top: "map16_34_conv2"
  scale_param {
    bias_term: true
  }
}
layer {
  name: "map16_34_relu2"
  type: "ReLU"
  bottom: "map16_34_conv2"
  top: "map16_34_conv2"
}
layer {
  name: "map16_34_conv_end"
  type: "Convolution"
  bottom: "map16_34_conv2"
  top: "map16_34_conv_end"
  param {
    lr_mult: 1
    decay_mult: 1
  }
  param {
    lr_mult: 2
    decay_mult: 0
  }
  convolution_param {
    num_output: 64
    pad: 0
    kernel_size: 1
    stride: 1
    weight_filler {
      type: "msra"
    }
    bias_filler {
      type: "constant"
      value: 0
    }
  }
}
layer {
  name: "map16_34_eltsum"
  type: "Eltwise"
  bottom: "map16_33_eltsum"
  bottom: "map16_34_conv_end"
  top: "map16_34_eltsum"
  eltwise_param {
    operation: SUM
  }
}
layer {
  name: "map16_35_bn_pre"
  type: "BatchNorm"
  bottom: "map16_34_eltsum"
  top: "map16_35_bn_pre"
  param {
    lr_mult: 0
    decay_mult: 0
  }
  param {
    lr_mult: 0
    decay_mult: 0
  }
  param {
    lr_mult: 0
    decay_mult: 0
  }
  include {
    phase: TRAIN
  }
  batch_norm_param {
    use_global_stats: false
  }
}
layer {
  name: "map16_35_bn_pre"
  type: "BatchNorm"
  bottom: "map16_34_eltsum"
  top: "map16_35_bn_pre"
  param {
    lr_mult: 0
    decay_mult: 0
  }
  param {
    lr_mult: 0
    decay_mult: 0
  }
  param {
    lr_mult: 0
    decay_mult: 0
  }
  include {
    phase: TEST
  }
  batch_norm_param {
    use_global_stats: true
  }
}
layer {
  name: "map16_35_pre_scale"
  type: "Scale"
  bottom: "map16_35_bn_pre"
  top: "map16_35_bn_pre"
  scale_param {
    bias_term: true
  }
}
layer {
  name: "map16_35_pre_relu"
  type: "ReLU"
  bottom: "map16_35_bn_pre"
  top: "map16_35_bn_pre"
}
layer {
  name: "map16_35_conv1"
  type: "Convolution"
  bottom: "map16_35_bn_pre"
  top: "map16_35_conv1"
  param {
    lr_mult: 1
    decay_mult: 1
  }
  param {
    lr_mult: 2
    decay_mult: 0
  }
  convolution_param {
    num_output: 16
    pad: 0
    kernel_size: 1
    stride: 1
    weight_filler {
      type: "msra"
    }
    bias_filler {
      type: "constant"
      value: 0
    }
  }
}
layer {
  name: "map16_35_bn1"
  type: "BatchNorm"
  bottom: "map16_35_conv1"
  top: "map16_35_conv1"
  param {
    lr_mult: 0
    decay_mult: 0
  }
  param {
    lr_mult: 0
    decay_mult: 0
  }
  param {
    lr_mult: 0
    decay_mult: 0
  }
  include {
    phase: TRAIN
  }
  batch_norm_param {
    use_global_stats: false
  }
}
layer {
  name: "map16_35_bn1"
  type: "BatchNorm"
  bottom: "map16_35_conv1"
  top: "map16_35_conv1"
  param {
    lr_mult: 0
    decay_mult: 0
  }
  param {
    lr_mult: 0
    decay_mult: 0
  }
  param {
    lr_mult: 0
    decay_mult: 0
  }
  include {
    phase: TEST
  }
  batch_norm_param {
    use_global_stats: true
  }
}
layer {
  name: "map16_35_scale1"
  type: "Scale"
  bottom: "map16_35_conv1"
  top: "map16_35_conv1"
  scale_param {
    bias_term: true
  }
}
layer {
  name: "map16_35_relu1"
  type: "ReLU"
  bottom: "map16_35_conv1"
  top: "map16_35_conv1"
}
layer {
  name: "map16_35_conv2"
  type: "Convolution"
  bottom: "map16_35_conv1"
  top: "map16_35_conv2"
  param {
    lr_mult: 1
    decay_mult: 1
  }
  param {
    lr_mult: 2
    decay_mult: 0
  }
  convolution_param {
    num_output: 16
    pad: 1
    kernel_size: 3
    stride: 1
    weight_filler {
      type: "msra"
    }
    bias_filler {
      type: "constant"
      value: 0
    }
  }
}
layer {
  name: "map16_35_bn2"
  type: "BatchNorm"
  bottom: "map16_35_conv2"
  top: "map16_35_conv2"
  param {
    lr_mult: 0
    decay_mult: 0
  }
  param {
    lr_mult: 0
    decay_mult: 0
  }
  param {
    lr_mult: 0
    decay_mult: 0
  }
  include {
    phase: TRAIN
  }
  batch_norm_param {
    use_global_stats: false
  }
}
layer {
  name: "map16_35_bn2"
  type: "BatchNorm"
  bottom: "map16_35_conv2"
  top: "map16_35_conv2"
  param {
    lr_mult: 0
    decay_mult: 0
  }
  param {
    lr_mult: 0
    decay_mult: 0
  }
  param {
    lr_mult: 0
    decay_mult: 0
  }
  include {
    phase: TEST
  }
  batch_norm_param {
    use_global_stats: true
  }
}
layer {
  name: "map16_35_scale2"
  type: "Scale"
  bottom: "map16_35_conv2"
  top: "map16_35_conv2"
  scale_param {
    bias_term: true
  }
}
layer {
  name: "map16_35_relu2"
  type: "ReLU"
  bottom: "map16_35_conv2"
  top: "map16_35_conv2"
}
layer {
  name: "map16_35_conv_end"
  type: "Convolution"
  bottom: "map16_35_conv2"
  top: "map16_35_conv_end"
  param {
    lr_mult: 1
    decay_mult: 1
  }
  param {
    lr_mult: 2
    decay_mult: 0
  }
  convolution_param {
    num_output: 64
    pad: 0
    kernel_size: 1
    stride: 1
    weight_filler {
      type: "msra"
    }
    bias_filler {
      type: "constant"
      value: 0
    }
  }
}
layer {
  name: "map16_35_eltsum"
  type: "Eltwise"
  bottom: "map16_34_eltsum"
  bottom: "map16_35_conv_end"
  top: "map16_35_eltsum"
  eltwise_param {
    operation: SUM
  }
}
layer {
  name: "map16_36_bn_pre"
  type: "BatchNorm"
  bottom: "map16_35_eltsum"
  top: "map16_36_bn_pre"
  param {
    lr_mult: 0
    decay_mult: 0
  }
  param {
    lr_mult: 0
    decay_mult: 0
  }
  param {
    lr_mult: 0
    decay_mult: 0
  }
  include {
    phase: TRAIN
  }
  batch_norm_param {
    use_global_stats: false
  }
}
layer {
  name: "map16_36_bn_pre"
  type: "BatchNorm"
  bottom: "map16_35_eltsum"
  top: "map16_36_bn_pre"
  param {
    lr_mult: 0
    decay_mult: 0
  }
  param {
    lr_mult: 0
    decay_mult: 0
  }
  param {
    lr_mult: 0
    decay_mult: 0
  }
  include {
    phase: TEST
  }
  batch_norm_param {
    use_global_stats: true
  }
}
layer {
  name: "map16_36_pre_scale"
  type: "Scale"
  bottom: "map16_36_bn_pre"
  top: "map16_36_bn_pre"
  scale_param {
    bias_term: true
  }
}
layer {
  name: "map16_36_pre_relu"
  type: "ReLU"
  bottom: "map16_36_bn_pre"
  top: "map16_36_bn_pre"
}
layer {
  name: "map16_36_conv1"
  type: "Convolution"
  bottom: "map16_36_bn_pre"
  top: "map16_36_conv1"
  param {
    lr_mult: 1
    decay_mult: 1
  }
  param {
    lr_mult: 2
    decay_mult: 0
  }
  convolution_param {
    num_output: 16
    pad: 0
    kernel_size: 1
    stride: 1
    weight_filler {
      type: "msra"
    }
    bias_filler {
      type: "constant"
      value: 0
    }
  }
}
layer {
  name: "map16_36_bn1"
  type: "BatchNorm"
  bottom: "map16_36_conv1"
  top: "map16_36_conv1"
  param {
    lr_mult: 0
    decay_mult: 0
  }
  param {
    lr_mult: 0
    decay_mult: 0
  }
  param {
    lr_mult: 0
    decay_mult: 0
  }
  include {
    phase: TRAIN
  }
  batch_norm_param {
    use_global_stats: false
  }
}
layer {
  name: "map16_36_bn1"
  type: "BatchNorm"
  bottom: "map16_36_conv1"
  top: "map16_36_conv1"
  param {
    lr_mult: 0
    decay_mult: 0
  }
  param {
    lr_mult: 0
    decay_mult: 0
  }
  param {
    lr_mult: 0
    decay_mult: 0
  }
  include {
    phase: TEST
  }
  batch_norm_param {
    use_global_stats: true
  }
}
layer {
  name: "map16_36_scale1"
  type: "Scale"
  bottom: "map16_36_conv1"
  top: "map16_36_conv1"
  scale_param {
    bias_term: true
  }
}
layer {
  name: "map16_36_relu1"
  type: "ReLU"
  bottom: "map16_36_conv1"
  top: "map16_36_conv1"
}
layer {
  name: "map16_36_conv2"
  type: "Convolution"
  bottom: "map16_36_conv1"
  top: "map16_36_conv2"
  param {
    lr_mult: 1
    decay_mult: 1
  }
  param {
    lr_mult: 2
    decay_mult: 0
  }
  convolution_param {
    num_output: 16
    pad: 1
    kernel_size: 3
    stride: 1
    weight_filler {
      type: "msra"
    }
    bias_filler {
      type: "constant"
      value: 0
    }
  }
}
layer {
  name: "map16_36_bn2"
  type: "BatchNorm"
  bottom: "map16_36_conv2"
  top: "map16_36_conv2"
  param {
    lr_mult: 0
    decay_mult: 0
  }
  param {
    lr_mult: 0
    decay_mult: 0
  }
  param {
    lr_mult: 0
    decay_mult: 0
  }
  include {
    phase: TRAIN
  }
  batch_norm_param {
    use_global_stats: false
  }
}
layer {
  name: "map16_36_bn2"
  type: "BatchNorm"
  bottom: "map16_36_conv2"
  top: "map16_36_conv2"
  param {
    lr_mult: 0
    decay_mult: 0
  }
  param {
    lr_mult: 0
    decay_mult: 0
  }
  param {
    lr_mult: 0
    decay_mult: 0
  }
  include {
    phase: TEST
  }
  batch_norm_param {
    use_global_stats: true
  }
}
layer {
  name: "map16_36_scale2"
  type: "Scale"
  bottom: "map16_36_conv2"
  top: "map16_36_conv2"
  scale_param {
    bias_term: true
  }
}
layer {
  name: "map16_36_relu2"
  type: "ReLU"
  bottom: "map16_36_conv2"
  top: "map16_36_conv2"
}
layer {
  name: "map16_36_conv_end"
  type: "Convolution"
  bottom: "map16_36_conv2"
  top: "map16_36_conv_end"
  param {
    lr_mult: 1
    decay_mult: 1
  }
  param {
    lr_mult: 2
    decay_mult: 0
  }
  convolution_param {
    num_output: 64
    pad: 0
    kernel_size: 1
    stride: 1
    weight_filler {
      type: "msra"
    }
    bias_filler {
      type: "constant"
      value: 0
    }
  }
}
layer {
  name: "map16_36_eltsum"
  type: "Eltwise"
  bottom: "map16_35_eltsum"
  bottom: "map16_36_conv_end"
  top: "map16_36_eltsum"
  eltwise_param {
    operation: SUM
  }
}
layer {
  name: "map16_37_bn_pre"
  type: "BatchNorm"
  bottom: "map16_36_eltsum"
  top: "map16_37_bn_pre"
  param {
    lr_mult: 0
    decay_mult: 0
  }
  param {
    lr_mult: 0
    decay_mult: 0
  }
  param {
    lr_mult: 0
    decay_mult: 0
  }
  include {
    phase: TRAIN
  }
  batch_norm_param {
    use_global_stats: false
  }
}
layer {
  name: "map16_37_bn_pre"
  type: "BatchNorm"
  bottom: "map16_36_eltsum"
  top: "map16_37_bn_pre"
  param {
    lr_mult: 0
    decay_mult: 0
  }
  param {
    lr_mult: 0
    decay_mult: 0
  }
  param {
    lr_mult: 0
    decay_mult: 0
  }
  include {
    phase: TEST
  }
  batch_norm_param {
    use_global_stats: true
  }
}
layer {
  name: "map16_37_pre_scale"
  type: "Scale"
  bottom: "map16_37_bn_pre"
  top: "map16_37_bn_pre"
  scale_param {
    bias_term: true
  }
}
layer {
  name: "map16_37_pre_relu"
  type: "ReLU"
  bottom: "map16_37_bn_pre"
  top: "map16_37_bn_pre"
}
layer {
  name: "map16_37_conv1"
  type: "Convolution"
  bottom: "map16_37_bn_pre"
  top: "map16_37_conv1"
  param {
    lr_mult: 1
    decay_mult: 1
  }
  param {
    lr_mult: 2
    decay_mult: 0
  }
…
    lr_mult: 0
    decay_mult: 0
  }
  param {
    lr_mult: 0
    decay_mult: 0
  }
  param {
    lr_mult: 0
    decay_mult: 0
  }
  include {
    phase: TRAIN
  }
  batch_norm_param {
    use_global_stats: false
  }
}
layer {
  name: "map64_100_bn1"
  type: "BatchNorm"
  bottom: "map64_100_conv1"
  top: "map64_100_conv1"
  param {
    lr_mult: 0
    decay_mult: 0
  }
  param {
    lr_mult: 0
    decay_mult: 0
  }
  param {
    lr_mult: 0
    decay_mult: 0
  }
  include {
    phase: TEST
  }
  batch_norm_param {
    use_global_stats: true
  }
}
layer {
  name: "map64_100_scale1"
  type: "Scale"
  bottom: "map64_100_conv1"
  top: "map64_100_conv1"
  scale_param {
    bias_term: true
  }
}
layer {
  name: "map64_100_relu1"
  type: "ReLU"
  bottom: "map64_100_conv1"
  top: "map64_100_conv1"
}
layer {
  name: "map64_100_conv2"
  type: "Convolution"
  bottom: "map64_100_conv1"
  top: "map64_100_conv2"
  param {
    lr_mult: 1
    decay_mult: 1
  }
  param {
    lr_mult: 2
    decay_mult: 0
  }
  convolution_param {
    num_output: 64
    pad: 1
    kernel_size: 3
    stride: 1
    weight_filler {
      type: "msra"
    }
    bias_filler {
      type: "constant"
      value: 0
    }
  }
}
layer {
  name: "map64_100_bn2"
  type: "BatchNorm"
  bottom: "map64_100_conv2"
  top: "map64_100_conv2"
  param {
    lr_mult: 0
    decay_mult: 0
  }
  param {
    lr_mult: 0
    decay_mult: 0
  }
  param {
    lr_mult: 0
    decay_mult: 0
  }
  include {
    phase: TRAIN
  }
  batch_norm_param {
    use_global_stats: false
  }
}
layer {
  name: "map64_100_bn2"
  type: "BatchNorm"
  bottom: "map64_100_conv2"
  top: "map64_100_conv2"
  param {
    lr_mult: 0
    decay_mult: 0
  }
  param {
    lr_mult: 0
    decay_mult: 0
  }
  param {
    lr_mult: 0
    decay_mult: 0
  }
  include {
    phase: TEST
  }
  batch_norm_param {
    use_global_stats: true
  }
}
layer {
  name: "map64_100_scale2"
  type: "Scale"
  bottom: "map64_100_conv2"
  top: "map64_100_conv2"
  scale_param {
    bias_term: true
  }
}
layer {
  name: "map64_100_relu2"
  type: "ReLU"
  bottom: "map64_100_conv2"
  top: "map64_100_conv2"
}
layer {
  name: "map64_100_conv_end"
  type: "Convolution"
  bottom: "map64_100_conv2"
  top: "map64_100_conv_end"
  param {
    lr_mult: 1
    decay_mult: 1
  }
  param {
    lr_mult: 2
    decay_mult: 0
  }
  convolution_param {
    num_output: 256
    pad: 0
    kernel_size: 1
    stride: 1
    weight_filler {
      type: "msra"
    }
    bias_filler {
      type: "constant"
      value: 0
    }
  }
}
layer {
  name: "map64_100_eltsum"
  type: "Eltwise"
  bottom: "map64_99_eltsum"
  bottom: "map64_100_conv_end"
  top: "map64_100_eltsum"
  eltwise_param {
    operation: SUM
  }
}
layer {
  name: "map64_101_bn_pre"
  type: "BatchNorm"
  bottom: "map64_100_eltsum"
  top: "map64_101_bn_pre"
  param {
    lr_mult: 0
    decay_mult: 0
  }
  param {
    lr_mult: 0
    decay_mult: 0
  }
  param {
    lr_mult: 0
    decay_mult: 0
  }
  include {
    phase: TRAIN
  }
  batch_norm_param {
    use_global_stats: false
  }
}
layer {
  name: "map64_101_bn_pre"
  type: "BatchNorm"
  bottom: "map64_100_eltsum"
  top: "map64_101_bn_pre"
  param {
    lr_mult: 0
    decay_mult: 0
  }
  param {
    lr_mult: 0
    decay_mult: 0
  }
  param {
    lr_mult: 0
    decay_mult: 0
  }
  include {
    phase: TEST
  }
  batch_norm_param {
    use_global_stats: true
  }
}
layer {
  name: "map64_101_pre_scale"
  type: "Scale"
  bottom: "map64_101_bn_pre"
  top: "map64_101_bn_pre"
  scale_param {
    bias_term: true
  }
}
layer {
  name: "map64_101_pre_relu"
  type: "ReLU"
  bottom: "map64_101_bn_pre"
  top: "map64_101_bn_pre"
}
layer {
  name: "map64_101_conv1"
  type: "Convolution"
  bottom: "map64_101_bn_pre"
  top: "map64_101_conv1"
  param {
    lr_mult: 1
    decay_mult: 1
  }
  param {
    lr_mult: 2
    decay_mult: 0
  }
  convolution_param {
    num_output: 64
    pad: 0
    kernel_size: 1
    stride: 1
    weight_filler {
      type: "msra"
    }
    bias_filler {
      type: "constant"
      value: 0
    }
  }
}
layer {
  name: "map64_101_bn1"
  type: "BatchNorm"
  bottom: "map64_101_conv1"
  top: "map64_101_conv1"
  param {
    lr_mult: 0
    decay_mult: 0
  }
  param {
    lr_mult: 0
    decay_mult: 0
  }
  param {
    lr_mult: 0
    decay_mult: 0
  }
  include {
    phase: TRAIN
  }
  batch_norm_param {
    use_global_stats: false
  }
}
layer {
  name: "map64_101_bn1"
  type: "BatchNorm"
  bottom: "map64_101_conv1"
  top: "map64_101_conv1"
  param {
    lr_mult: 0
    decay_mult: 0
  }
  param {
    lr_mult: 0
    decay_mult: 0
  }
  param {
    lr_mult: 0
    decay_mult: 0
  }
  include {
    phase: TEST
  }
  batch_norm_param {
    use_global_stats: true
  }
}
layer {
  name: "map64_101_scale1"
  type: "Scale"
  bottom: "map64_101_conv1"
  top: "map64_101_conv1"
  scale_param {
    bias_term: true
  }
}
layer {
  name: "map64_101_relu1"
  type: "ReLU"
  bottom: "map64_101_conv1"
  top: "map64_101_conv1"
}
layer {
  name: "map64_101_conv2"
  type: "Convolution"
  bottom: "map64_101_conv1"
  top: "map64_101_conv2"
  param {
    lr_mult: 1
    decay_mult: 1
  }
  param {
    lr_mult: 2
    decay_mult: 0
  }
  convolution_param {
    num_output: 64
    pad: 1
    kernel_size: 3
    stride: 1
    weight_filler {
      type: "msra"
    }
    bias_filler {
      type: "constant"
      value: 0
    }
  }
}
layer {
  name: "map64_101_bn2"
  type: "BatchNorm"
  bottom: "map64_101_conv2"
  top: "map64_101_conv2"
  param {
    lr_mult: 0
    decay_mult: 0
  }
  param {
    lr_mult: 0
    decay_mult: 0
  }
  param {
    lr_mult: 0
    decay_mult: 0
  }
  include {
    phase: TRAIN
  }
  batch_norm_param {
    use_global_stats: false
  }
}
layer {
  name: "map64_101_bn2"
  type: "BatchNorm"
  bottom: "map64_101_conv2"
  top: "map64_101_conv2"
  param {
    lr_mult: 0
    decay_mult: 0
  }
  param {
    lr_mult: 0
    decay_mult: 0
  }
  param {
    lr_mult: 0
    decay_mult: 0
  }
  include {
    phase: TEST
  }
  batch_norm_param {
    use_global_stats: true
  }
}
layer {
  name: "map64_101_scale2"
  type: "Scale"
  bottom: "map64_101_conv2"
  top: "map64_101_conv2"
  scale_param {
    bias_term: true
  }
}
layer {
  name: "map64_101_relu2"
  type: "ReLU"
  bottom: "map64_101_conv2"
  top: "map64_101_conv2"
}
layer {
  name: "map64_101_conv_end"
  type: "Convolution"
  bottom: "map64_101_conv2"
  top: "map64_101_conv_end"
  param {
    lr_mult: 1
    decay_mult: 1
  }
  param {
    lr_mult: 2
    decay_mult: 0
  }
  convolution_param {
    num_output: 256
    pad: 0
    kernel_size: 1
    stride: 1
    weight_filler {
      type: "msra"
    }
    bias_filler {
      type: "constant"
      value: 0
    }
  }
}
layer {
  name: "map64_101_eltsum"
  type: "Eltwise"
  bottom: "map64_100_eltsum"
  bottom: "map64_101_conv_end"
  top: "map64_101_eltsum"
  eltwise_param {
    operation: SUM
  }
}
layer {
  name: "map64_102_bn_pre"
  type: "BatchNorm"
  bottom: "map64_101_eltsum"
  top: "map64_102_bn_pre"
  param {
    lr_mult: 0
    decay_mult: 0
  }
  param {
    lr_mult: 0
    decay_mult: 0
  }
  param {
    lr_mult: 0
    decay_mult: 0
  }
  include {
    phase: TRAIN
  }
  batch_norm_param {
    use_global_stats: false
  }
}
layer {
  name: "map64_102_bn_pre"
  type: "BatchNorm"
  bottom: "map64_101_eltsum"
  top: "map64_102_bn_pre"
  param {
    lr_mult: 0
    decay_mult: 0
  }
  param {
    lr_mult: 0
    decay_mult: 0
  }
  param {
    lr_mult: 0
    decay_mult: 0
  }
  include {
    phase: TEST
  }
  batch_norm_param {
    use_global_stats: true
  }
}
layer {
  name: "map64_102_pre_scale"
  type: "Scale"
  bottom: "map64_102_bn_pre"
  top: "map64_102_bn_pre"
  scale_param {
    bias_term: true
  }
}
layer {
  name: "map64_102_pre_relu"
  type: "ReLU"
  bottom: "map64_102_bn_pre"
  top: "map64_102_bn_pre"
}
layer {
  name: "map64_102_conv1"
  type: "Convolution"
  bottom: "map64_102_bn_pre"
  top: "map64_102_conv1"
  param {
    lr_mult: 1
    decay_mult: 1
  }
  param {
    lr_mult: 2
    decay_mult: 0
  }
  convolution_param {
    num_output: 64
    pad: 0
    kernel_size: 1
    stride: 1
    weight_filler {
      type: "msra"
    }
    bias_filler {
      type: "constant"
      value: 0
    }
  }
}
layer {
  name: "map64_102_bn1"
  type: "BatchNorm"
  bottom: "map64_102_conv1"
  top: "map64_102_conv1"
  param {
    lr_mult: 0
    decay_mult: 0
  }
  param {
    lr_mult: 0
    decay_mult: 0
  }
  param {
    lr_mult: 0
    decay_mult: 0
  }
  include {
    phase: TRAIN
  }
  batch_norm_param {
    use_global_stats: false
  }
}
layer {
  name: "map64_102_bn1"
  type: "BatchNorm"
  bottom: "map64_102_conv1"
  top: "map64_102_conv1"
  param {
    lr_mult: 0
    decay_mult: 0
  }
  param {
    lr_mult: 0
    decay_mult: 0
  }
  param {
    lr_mult: 0
    decay_mult: 0
  }
  include {
    phase: TEST
  }
  batch_norm_param {
    use_global_stats: true
  }
}
layer {
  name: "map64_102_scale1"
  type: "Scale"
  bottom: "map64_102_conv1"
  top: "map64_102_conv1"
  scale_param {
    bias_term: true
  }
}
layer {
  name: "map64_102_relu1"
  type: "ReLU"
  bottom: "map64_102_conv1"
  top: "map64_102_conv1"
}
layer {
  name: "map64_102_conv2"
  type: "Convolution"
  bottom: "map64_102_conv1"
  top: "map64_102_conv2"
  param {
    lr_mult: 1
    decay_mult: 1
  }
  param {
    lr_mult: 2
    decay_mult: 0
  }
  convolution_param {
    num_output: 64
    pad: 1
    kernel_size: 3
    stride: 1
    weight_filler {
      type: "msra"
    }
    bias_filler {
      type: "constant"
      value: 0
    }
  }
}
layer {
  name: "map64_102_bn2"
  type: "BatchNorm"
  bottom: "map64_102_conv2"
  top: "map64_102_conv2"
  param {
    lr_mult: 0
    decay_mult: 0
  }
  param {
    lr_mult: 0
    decay_mult: 0
  }
  param {
    lr_mult: 0
    decay_mult: 0
  }
  include {
    phase: TRAIN
  }
  batch_norm_param {
    use_global_stats: false
  }
}
layer {
  name: "map64_102_bn2"
  type: "BatchNorm"
  bottom: "map64_102_conv2"
  top: "map64_102_conv2"
  param {
    lr_mult: 0
    decay_mult: 0
  }
  param {
    lr_mult: 0
    decay_mult: 0
  }
  param {
    lr_mult: 0
    decay_mult: 0
  }
  include {
    phase: TEST
  }
  batch_norm_param {
    use_global_stats: true
  }
}
layer {
  name: "map64_102_scale2"
  type: "Scale"
  bottom: "map64_102_conv2"
  top: "map64_102_conv2"
  scale_param {
    bias_term: true
  }
}
layer {
  name: "map64_102_relu2"
  type: "ReLU"
  bottom: "map64_102_conv2"
  top: "map64_102_conv2"
}
layer {
  name: "map64_102_conv_end"
  type: "Convolution"
  bottom: "map64_102_conv2"
  top: "map64_102_conv_end"
  param {
    lr_mult: 1
    decay_mult: 1
  }
  param {
    lr_mult: 2
    decay_mult: 0
  }
  convolution_param {
    num_output: 256
    pad: 0
    kernel_size: 1
    stride: 1
    weight_filler {
      type: "msra"
    }
    bias_filler {
      type: "constant"
      value: 0
    }
  }
}
layer {
  name: "map64_102_eltsum"
  type: "Eltwise"
  bottom: "map64_101_eltsum"
  bottom: "map64_102_conv_end"
  top: "map64_102_eltsum"
  eltwise_param {
    operation: SUM
  }
}
layer {
  name: "map64_103_bn_pre"
  type: "BatchNorm"
  bottom: "map64_102_eltsum"
  top: "map64_103_bn_pre"
  param {
    lr_mult: 0
    decay_mult: 0
  }
  param {
    lr_mult: 0
    decay_mult: 0
  }
  param {
    lr_mult: 0
    decay_mult: 0
  }
  include {
    phase: TRAIN
  }
  batch_norm_param {
    use_global_stats: false
  }
}
layer {
  name: "map64_103_bn_pre"
  type: "BatchNorm"
  bottom: "map64_102_eltsum"
  top: "map64_103_bn_pre"
  param {
    lr_mult: 0
    decay_mult: 0
  }
  param {
    lr_mult: 0
    decay_mult: 0
  }
  param {
    lr_mult: 0
    decay_mult: 0
  }
  include {
    phase: TEST
  }
  batch_norm_param {
    use_global_stats: true
  }
}
layer {
  name: "map64_103_pre_scale"
  type: "Scale"
  bottom: "map64_103_bn_pre"
  top: "map64_103_bn_pre"
  scale_param {
    bias_term: true
  }
}
layer {
  name: "map64_103_pre_relu"
  type: "ReLU"
  bottom: "map64_103_bn_pre"
  top: "map64_103_bn_pre"
}
layer {
  name: "map64_103_conv1"
  type: "Convolution"
  bottom: "map64_103_bn_pre"
  top: "map64_103_conv1"
  param {
    lr_mult: 1
    decay_mult: 1
  }
  param {
    lr_mult: 2
    decay_mult: 0
  }
  convolution_param {
    num_output: 64
    pad: 0
    kernel_size: 1
    stride: 1
    weight_filler {
      type: "msra"
    }
    bias_filler {
      type: "constant"
      value: 0
    }
  }
}
layer {
  name: "map64_103_bn1"
  type: "BatchNorm"
  bottom: "map64_103_conv1"
  top: "map64_103_conv1"
  param {
    lr_mult: 0
    decay_mult: 0
  }
  param {
    lr_mult: 0
    decay_mult: 0
  }
  param {
    lr_mult: 0
    decay_mult: 0
  }
  include {
    phase: TRAIN
  }
  batch_norm_param {
    use_global_stats: false
  }
}
layer {
  name: "map64_103_bn1"
  type: "BatchNorm"
  bottom: "map64_103_conv1"
  top: "map64_103_conv1"
  param {
    lr_mult: 0
    decay_mult: 0
  }
  param {
    lr_mult: 0
    decay_mult: 0
  }
  param {
    lr_mult: 0
    decay_mult: 0
  }
  include {
    phase: TEST
  }
  batch_norm_param {
    use_global_stats: true
  }
}
layer {
  name: "map64_103_scale1"
  type: "Scale"
  bottom: "map64_103_conv1"
  top: "map64_103_conv1"
  scale_param {
    bias_term: true
  }
}
layer {
  name: "map64_103_relu1"
  type: "ReLU"
  bottom: "map64_103_conv1"
  top: "map64_103_conv1"
}
layer {
  name: "map64_103_conv2"
  type: "Convolution"
  bottom: "map64_103_conv1"
  top: "map64_103_conv2"
  param {
    lr_mult: 1
    decay_mult: 1
  }
  param {
    lr_mult: 2
    decay_mult: 0
  }
  convolution_param {
    num_output: 64
    pad: 1
    kernel_size: 3
    stride: 1
    weight_filler {
      type: "msra"
    }
    bias_filler {
      type: "constant"
      value: 0
    }
  }
}
layer {
  name: "map64_103_bn2"
  type: "BatchNorm"
  bottom: "map64_103_conv2"
  top: "map64_103_conv2"
  param {
    lr_mult: 0
    decay_mult: 0
  }
  param {
    lr_mult: 0
    decay_mult: 0
  }
  param {
    lr_mult: 0
    decay_mult: 0
  }
  include {
    phase: TRAIN
  }
  batch_norm_param {
    use_global_stats: false
  }
}
layer {
  name: "map64_103_bn2"
  type: "BatchNorm"
  bottom: "map64_103_conv2"
  top: "map64_103_conv2"
  param {
    lr_mult: 0
    decay_mult: 0
  }
  param {
    lr_mult: 0
    decay_mult: 0
  }
  param {
    lr_mult: 0
    decay_mult: 0
  }
  include {
    phase: TEST
  }
  batch_norm_param {
    use_global_stats: true
  }
}
layer {
  name: "map64_103_scale2"
  type: "Scale"
  bottom: "map64_103_conv2"
  top: "map64_103_conv2"
  scale_param {
    bias_term: true
  }
}
layer {
  name: "map64_103_relu2"
  type: "ReLU"
  bottom: "map64_103_conv2"
  top: "map64_103_conv2"
}
layer {
  name: "map64_103_conv_end"
  type: "Convolution"
  bottom: "map64_103_conv2"
  top: "map64_103_conv_end"
  param {
    lr_mult: 1
    decay_mult: 1
  }
  param {
    lr_mult: 2
    decay_mult: 0
  }
  convolution_param {
    num_output: 256
    pad: 0
    kernel_size: 1
    stride: 1
    weight_filler {
      type: "msra"
    }
    bias_filler {
      type: "constant"
      value: 0
    }
  }
}
layer {
  name: "map64_103_eltsum"
  type: "Eltwise"
  bottom: "map64_102_eltsum"
  bottom: "map64_103_conv_end"
  top: "map64_103_eltsum"
  eltwise_param {
    operation: SUM
  }
}
layer {
  name: "map64_104_bn_pre"
  type: "BatchNorm"
  bottom: "map64_103_eltsum"
  top: "map64_104_bn_pre"
  param {
    lr_mult: 0
    decay_mult: 0
  }
  param {
    lr_mult: 0
    decay_mult: 0
  }
  param {
    lr_mult: 0
    decay_mult: 0
  }
  include {
    phase: TRAIN
  }
  batch_norm_param {
    use_global_stats: false
  }
}
layer {
  name: "map64_104_bn_pre"
  type: "BatchNorm"
  bottom: "map64_103_eltsum"
  top: "map64_104_bn_pre"
  param {
    lr_mult: 0
    decay_mult: 0
  }
  param {
    lr_mult: 0
    decay_mult: 0
  }
  param {
    lr_mult: 0
    decay_mult: 0
  }
  include {
    phase: TEST
  }
  batch_norm_param {
    use_global_stats: true
  }
}
layer {
  name: "map64_104_pre_scale"
  type: "Scale"
  bottom: "map64_104_bn_pre"
  top: "map64_104_bn_pre"
  scale_param {
    bias_term: true
  }
}
layer {
  name: "map64_104_pre_relu"
  type: "ReLU"
  bottom: "map64_104_bn_pre"
  top: "map64_104_bn_pre"
}
layer {
  name: "map64_104_conv1"
  type: "Convolution"
  bottom: "map64_104_bn_pre"
  top: "map64_104_conv1"
  param {
    lr_mult: 1
    decay_mult: 1
  }
  param {
    lr_mult: 2
    decay_mult: 0
  }
  convolution_param {
    num_output: 64
    pad: 0
    kernel_size: 1
    stride: 1
    weight_filler {
      type: "msra"
    }
    bias_filler {
      type: "constant"
      value: 0
    }
  }
}
layer {
  name: "map64_104_bn1"
  type: "BatchNorm"
  bottom: "map64_104_conv1"
  top: "map64_104_conv1"
  param {
    lr_mult: 0
    decay_mult: 0
  }
  param {
    lr_mult: 0
    decay_mult: 0
  }
  param {
    lr_mult: 0
    decay_mult: 0
  }
  include {
    phase: TRAIN
  }
  batch_norm_param {
    use_global_stats: false
  }
}
layer {
  name: "map64_104_bn1"
  type: "BatchNorm"
  bottom: "map64_104_conv1"
  top: "map64_104_conv1"
  param {
    lr_mult: 0
    decay_mult: 0
  }
  param {
    lr_mult: 0
    decay_mult: 0
  }
  param {
    lr_mult: 0
    decay_mult: 0
  }
  include {
    phase: TEST
  }
  batch_norm_param {
    use_global_stats: true
  }
}
layer {
  name: "map64_104_scale1"
  type: "Scale"
  bottom: "map64_104_conv1"
  top: "map64_104_conv1"
  scale_param {
    bias_term: true
  }
}
layer {
  name: "map64_104_relu1"
  type: "ReLU"
  bottom: "map64_104_conv1"
  top: "map64_104_conv1"
}
layer {
  name: "map64_104_conv2"
  type: "Convolution"
  bottom: "map64_104_conv1"
  top: "map64_104_conv2"
  param {
    lr_mult: 1
    decay_mult: 1
  }
  param {
    lr_mult: 2
    decay_mult: 0
  }
  convolution_param {
    num_output: 64
    pad: 1
    kernel_size: 3
    stride: 1
    weight_filler {
      type: "msra"
    }
    bias_filler {
      type: "constant"
      value: 0
    }
  }
}
layer {
  name: "map64_104_bn2"
  type: "BatchNorm"
  bottom: "map64_104_conv2"
  top: "map64_104_conv2"
  param {
    lr_mult: 0
    decay_mult: 0
  }
  param {
    lr_mult: 0
    decay_mult: 0
  }
  param {
    lr_mult: 0
    decay_mult: 0
  }
  include {
    phase: TRAIN
  }
  batch_norm_param {
    use_global_stats: false
  }
}
layer {
  name: "map64_104_bn2"
  type: "BatchNorm"
  bottom: "map64_104_conv2"
  top: "map64_104_conv2"
  param {
    lr_mult: 0
    decay_mult: 0
  }
  param {
    lr_mult: 0
    decay_mult: 0
  }
  param {
    lr_mult: 0
    decay_mult: 0
  }
  include {
    phase: TEST
  }
  batch_norm_param {
    use_global_stats: true
  }
}
layer {
  name: "map64_104_scale2"
  type: "Scale"
  bottom: "map64_104_conv2"
  top: "map64_104_conv2"
  scale_param {
    bias_term: true
  }
}
layer {
  name: "map64_104_relu2"
  type: "ReLU"
  bottom: "map64_104_conv2"
  top: "map64_104_conv2"
}
layer {
  name: "map64_104_conv_end"
  type: "Convolution"
  bottom: "map64_104_conv2"
  top: "map64_104_conv_end"
  param {
    lr_mult: 1
    decay_mult: 1
  }
  param {
    lr_mult: 2
    decay_mult: 0
  }
  convolution_param {
    num_output: 256
    pad: 0
    kernel_size: 1
    stride: 1
    weight_filler {
      type: "msra"
    }
    bias_filler {
      type: "constant"
      value: 0
    }
  }
}
layer {
  name: "map64_104_eltsum"
  type: "Eltwise"
  bottom: "map64_103_eltsum"
  bottom: "map64_104_conv_end"
  top: "map64_104_eltsum"
  eltwise_param {
    operation: SUM
  }
}
layer {
  name: "map64_105_bn_pre"
  type: "BatchNorm"
  bottom: "map64_104_eltsum"
  top: "map64_105_bn_pre"
  param {
    lr_mult: 0
    decay_mult: 0
  }
  param {
    lr_mult: 0
    decay_mult: 0
  }
  param {
    lr_mult: 0
    decay_mult: 0
  }
  include {
    phase: TRAIN
  }
  batch_norm_param {
    use_global_stats: false
  }
}
layer {
  name: "map64_105_bn_pre"
  type: "BatchNorm"
  bottom: "map64_104_eltsum"
  top: "map64_105_bn_pre"
  param {
    lr_mult: 0
    decay_mult: 0
  }
  param {
    lr_mult: 0
    decay_mult: 0
  }
  param {
    lr_mult: 0
    decay_mult: 0
  }
  include {
    phase: TEST
  }
  batch_norm_param {
    use_global_stats: true
  }
}
layer {
  name: "map64_105_pre_scale"
  type: "Scale"
  bottom: "map64_105_bn_pre"
  top: "map64_105_bn_pre"
  scale_param {
    bias_term: true
  }
}
layer {
  name: "map64_105_pre_relu"
  type: "ReLU"
  bottom: "map64_105_bn_pre"
  top: "map64_105_bn_pre"
}
layer {
  name: "map64_105_conv1"
  type: "Convolution"
  bottom: "map64_105_bn_pre"
  top: "map64_105_conv1"
  param {
    lr_mult: 1
    decay_mult: 1
  }
  param {
    lr_mult: 2
    decay_mult: 0
  }
  convolution_param {
    num_output: 64
    pad: 0
    kernel_size: 1
    stride: 1
    weight_filler {
      type: "msra"
    }
    bias_filler {
      type: "constant"
      value: 0
    }
  }
}
layer {
  name: "map64_105_bn1"
  type: "BatchNorm"
  bottom: "map64_105_conv1"
  top: "map64_105_conv1"
  param {
    lr_mult: 0
    decay_mult: 0
  }
  param {
    lr_mult: 0
    decay_mult: 0
  }
  param {
    lr_mult: 0
    decay_mult: 0
  }
  include {
    phase: TRAIN
  }
  batch_norm_param {
    use_global_stats: false
  }
}
layer {
  name: "map64_105_bn1"
  type: "BatchNorm"
  bottom: "map64_105_conv1"
  top: "map64_105_conv1"
  param {
    lr_mult: 0
    decay_mult: 0
  }
  param {
    lr_mult: 0
    decay_mult: 0
  }
  param {
    lr_mult: 0
    decay_mult: 0
  }
  include {
    phase: TEST
  }
  batch_norm_param {
    use_global_stats: true
  }
}
layer {
  name: "map64_105_scale1"
  type: "Scale"
  bottom: "map64_105_conv1"
  top: "map64_105_conv1"
  scale_param {
    bias_term: true
  }
}
layer {
  name: "map64_105_relu1"
  type: "ReLU"
  bottom: "map64_105_conv1"
  top: "map64_105_conv1"
}
layer {
  name: "map64_105_conv2"
  type: "Convolution"
  bottom: "map64_105_conv1"
  top: "map64_105_conv2"
  param {
    lr_mult: 1
    decay_mult: 1
  }
  param {
    lr_mult: 2
    decay_mult: 0
  }
  convolution_param {
    num_output: 64
    pad: 1
    kernel_size: 3
    stride: 1
    weight_filler {
      type: "msra"
    }
    bias_filler {
      type: "constant"
      value: 0
    }
  }
}
layer {
  name: "map64_105_bn2"
  type: "BatchNorm"
  bottom: "map64_105_conv2"
  top: "map64_105_conv2"
  param {
    lr_mult: 0
    decay_mult: 0
  }
  param {
    lr_mult: 0
    decay_mult: 0
  }
  param {
    lr_mult: 0
    decay_mult: 0
  }
  include {
    phase: TRAIN
  }
  batch_norm_param {
    use_global_stats: false
  }
}
layer {
  name: "map64_105_bn2"
  type: "BatchNorm"
  bottom: "map64_105_conv2"
  top: "map64_105_conv2"
  param {
    lr_mult: 0
    decay_mult: 0
  }
  param {
    lr_mult: 0
    decay_mult: 0
  }
  param {
    lr_mult: 0
    decay_mult: 0
  }
  include {
    phase: TEST
  }
  batch_norm_param {
    use_global_stats: true
  }
}
layer {
  name: "map64_105_scale2"
  type: "Scale"
  bottom: "map64_105_conv2"
  top: "map64_105_conv2"
  scale_param {
    bias_term: true
  }
}
layer {
  name: "map64_105_relu2"
  type: "ReLU"
  bottom: "map64_105_conv2"
  top: "map64_105_conv2"
}
layer {
  name: "map64_105_conv_end"
  type: "Convolution"
  bottom: "map64_105_conv2"
  top: "map64_105_conv_end"
  param {
    lr_mult: 1
    decay_mult: 1
  }
  param {
    lr_mult: 2
    decay_mult: 0
  }
  convolution_param {
    num_output: 256
    pad: 0
    kernel_size: 1
    stride: 1
    weight_filler {
      type: "msra"
    }
    bias_filler {
      type: "constant"
      value: 0
    }
  }
}
layer {
  name: "map64_105_eltsum"
  type: "Eltwise"
  bottom: "map64_104_eltsum"
  bottom: "map64_105_conv_end"
  top: "map64_105_eltsum"
  eltwise_param {
    operation: SUM
  }
}
layer {
  name: "map64_106_bn_pre"
  type: "BatchNorm"
  bottom: "map64_105_eltsum"
  top: "map64_106_bn_pre"
  param {
    lr_mult: 0
    decay_mult: 0
  }
  param {
    lr_mult: 0
    decay_mult: 0
  }
  param {
    lr_mult: 0
    decay_mult: 0
  }
  include {
    phase: TRAIN
  }
  batch_norm_param {
    use_global_stats: false
  }
}
layer {
  name: "map64_106_bn_pre"
  type: "BatchNorm"
  bottom: "map64_105_eltsum"
  top: "map64_106_bn_pre"
  param {
    lr_mult: 0
    decay_mult: 0
  }
  param {
    lr_mult: 0
    decay_mult: 0
  }
  param {
    lr_mult: 0
    decay_mult: 0
  }
  include {
    phase: TEST
  }
  batch_norm_param {
    use_global_stats: true
  }
}
layer {
  name: "map64_106_pre_scale"
  type: "Scale"
  bottom: "map64_106_bn_pre"
  top: "map64_106_bn_pre"
  scale_param {
    bias_term: true
  }
}
layer {
  name: "map64_106_pre_relu"
  type: "ReLU"
  bottom: "map64_106_bn_pre"
  top: "map64_106_bn_pre"
}
layer {
  name: "map64_106_conv1"
  type: "Convolution"
  bottom: "map64_106_bn_pre"
  top: "map64_106_conv1"
  param {
    lr_mult: 1
    decay_mult: 1
  }
  param {
    lr_mult: 2
    decay_mult: 0
  }
  convolution_param {
    num_output: 64
    pad: 0
    kernel_size: 1
    stride: 1
    weight_filler {
      type: "msra"
    }
    bias_filler {
      type: "constant"
      value: 0
    }
  }
}
layer {
  name: "map64_106_bn1"
  type: "BatchNorm"
  bottom: "map64_106_conv1"
  top: "map64_106_conv1"
  param {
    lr_mult: 0
    decay_mult: 0
  }
  param {
    lr_mult: 0
    decay_mult: 0
  }
  param {
    lr_mult: 0
    decay_mult: 0
  }
  include {
    phase: TRAIN
  }
  batch_norm_param {
    use_global_stats: false
  }
}
layer {
  name: "map64_106_bn1"
  type: "BatchNorm"
  bottom: "map64_106_conv1"
  top: "map64_106_conv1"
  param {
    lr_mult: 0
    decay_mult: 0
  }
  param {
    lr_mult: 0
    decay_mult: 0
  }
  param {
    lr_mult: 0
    decay_mult: 0
  }
  include {
    phase: TEST
  }
  batch_norm_param {
    use_global_stats: true
  }
}
layer {
  name: "map64_106_scale1"
  type: "Scale"
  bottom: "map64_106_conv1"
  top: "map64_106_conv1"
  scale_param {
    bias_term: true
  }
}
layer {
  name: "map64_106_relu1"
  type: "ReLU"
  bottom: "map64_106_conv1"
  top: "map64_106_conv1"
}
layer {
  name: "map64_106_conv2"
  type: "Convolution"
  bottom: "map64_106_conv1"
  top: "map64_106_conv2"
  param {
    lr_mult: 1
    decay_mult: 1
  }
  param {
    lr_mult: 2
    decay_mult: 0
  }
  convolution_param {
    num_output: 64
    pad: 1
    kernel_size: 3
    stride: 1
    weight_filler {
      type: "msra"
    }
    bias_filler {
      type: "constant"
      value: 0
    }
  }
}
layer {
  name: "map64_106_bn2"
  type: "BatchNorm"
  bottom: "map64_106_conv2"
  top: "map64_106_conv2"
  param {
    lr_mult: 0
    decay_mult: 0
  }
  param {
    lr_mult: 0
    decay_mult: 0
  }
  param {
    lr_mult: 0
    decay_mult: 0
  }
  include {
    phase: TRAIN
  }
  batch_norm_param {
    use_global_stats: false
  }
}
layer {
  name: "map64_106_bn2"
  type: "BatchNorm"
  bottom: "map64_106_conv2"
  top: "map64_106_conv2"
  param {
    lr_mult: 0
    decay_mult: 0
  }
  param {
    lr_mult: 0
    decay_mult: 0
  }
  param {
    lr_mult: 0
    decay_mult: 0
  }
  include {
    phase: TEST
  }
  batch_norm_param {
    use_global_stats: true
  }
}
layer {
  name: "map64_106_scale2"
  type: "Scale"
  bottom: "map64_106_conv2"
  top: "map64_106_conv2"
  scale_param {
    bias_term: true
  }
}
layer {
  name: "map64_106_relu2"
  type: "ReLU"
  bottom: "map64_106_conv2"
  top: "map64_106_conv2"
}
layer {
  name: "map64_106_conv_end"
  type: "Convolution"
  bottom: "map64_106_conv2"
  top: "map64_106_conv_end"
  param {
    lr_mult: 1
    decay_mult: 1
  }
  param {
    lr_mult: 2
    decay_mult: 0
  }
  convolution_param {
    num_output: 256
    pad: 0
    kernel_size: 1
    stride: 1
    weight_filler {
      type: "msra"
    }
    bias_filler {
      type: "constant"
      value: 0
    }
  }
}
layer {
  name: "map64_106_eltsum"
  type: "Eltwise"
  bottom: "map64_105_eltsum"
  bottom: "map64_106_conv_end"
  top: "map64_106_eltsum"
  eltwise_param {
    operation: SUM
  }
}
layer {
  name: "map64_107_bn_pre"
  type: "BatchNorm"
  bottom: "map64_106_eltsum"
  top: "map64_107_bn_pre"
  param {
    lr_mult: 0
    decay_mult: 0
  }
  param {
    lr_mult: 0
    decay_mult: 0
  }
  param {
    lr_mult: 0
    decay_mult: 0
  }
  include {
    phase: TRAIN
  }
  batch_norm_param {
    use_global_stats: false
  }
}
layer {
  name: "map64_107_bn_pre"
  type: "BatchNorm"
  bottom: "map64_106_eltsum"
  top: "map64_107_bn_pre"
  param {
    lr_mult: 0
    decay_mult: 0
  }
  param {
    lr_mult: 0
    decay_mult: 0
  }
  param {
    lr_mult: 0
    decay_mult: 0
  }
  include {
    phase: TEST
  }
  batch_norm_param {
    use_global_stats: true
  }
}
layer {
  name: "map64_107_pre_scale"
  type: "Scale"
  bottom: "map64_107_bn_pre"
  top: "map64_107_bn_pre"
  scale_param {
    bias_term: true
  }
}
layer {
  name: "map64_107_pre_relu"
  type: "ReLU"
  bottom: "map64_107_bn_pre"
  top: "map64_107_bn_pre"
}
layer {
  name: "map64_107_conv1"
  type: "Convolution"
  bottom: "map64_107_bn_pre"
  top: "map64_107_conv1"
  param {
    lr_mult: 1
    decay_mult: 1
  }
  param {
    lr_mult: 2
    decay_mult: 0
  }
  convolution_param {
    num_output: 64
    pad: 0
    kernel_size: 1
    stride: 1
    weight_filler {
      type: "msra"
    }
    bias_filler {
      type: "constant"
      value: 0
    }
  }
}
layer {
  name: "map64_107_bn1"
  type: "BatchNorm"
  bottom: "map64_107_conv1"
  top: "map64_107_conv1"
  param {
    lr_mult: 0
    decay_mult: 0
  }
  param {
    lr_mult: 0
    decay_mult: 0
  }
  param {
    lr_mult: 0
    decay_mult: 0
  }
  include {
    phase: TRAIN
  }
  batch_norm_param {
    use_global_stats: false
  }
}
layer {
  name: "map64_107_bn1"
  type: "BatchNorm"
  bottom: "map64_107_conv1"
  top: "map64_107_conv1"
  param {
    lr_mult: 0
    decay_mult: 0
  }
  param {
    lr_mult: 0
    decay_mult: 0
  }
  param {
    lr_mult: 0
    decay_mult: 0
  }
  include {
    phase: TEST
  }
  batch_norm_param {
    use_global_stats: true
  }
}
layer {
  name: "map64_107_scale1"
  type: "Scale"
  bottom: "map64_107_conv1"
  top: "map64_107_conv1"
  scale_param {
    bias_term: true
  }
}
layer {
  name: "map64_107_relu1"
  type: "ReLU"
  bottom: "map64_107_conv1"
  top: "map64_107_conv1"
}
layer {
  name: "map64_107_conv2"
  type: "Convolution"
  bottom: "map64_107_conv1"
  top: "map64_107_conv2"
  param {
    lr_mult: 1
    decay_mult: 1
  }
  param {
    lr_mult: 2
    decay_mult: 0
  }
  convolution_param {
    num_output: 64
    pad: 1
    kernel_size: 3
    stride: 1
    weight_filler {
      type: "msra"
    }
    bias_filler {
      type: "constant"
      value: 0
    }
  }
}
layer {
  name: "map64_107_bn2"
  type: "BatchNorm"
  bottom: "map64_107_conv2"
  top: "map64_107_conv2"
  param {
    lr_mult: 0
    decay_mult: 0
  }
  param {
    lr_mult: 0
    decay_mult: 0
  }
  param {
    lr_mult: 0
    decay_mult: 0
  }
  include {
    phase: TRAIN
  }
  batch_norm_param {
    use_global_stats: false
  }
}
layer {
  name: "map64_107_bn2"
  type: "BatchNorm"
  bottom: "map64_107_conv2"
  top: "map64_107_conv2"
  param {
    lr_mult: 0
    decay_mult: 0
  }
  param {
    lr_mult: 0
    decay_mult: 0
  }
  param {
    lr_mult: 0
    decay_mult: 0
  }
  include {
    phase: TEST
  }
  batch_norm_param {
    use_global_stats: true
  }
}
layer {
  name: "map64_107_scale2"
  type: "Scale"
  bottom: "map64_107_conv2"
  top: "map64_107_conv2"
  scale_param {
    bias_term: true
  }
}
layer {
  name: "map64_107_relu2"
  type: "ReLU"
  bottom: "map64_107_conv2"
  top: "map64_107_conv2"
}
layer {
  name: "map64_107_conv_end"
  type: "Convolution"
  bottom: "map64_107_conv2"
  top: "map64_107_conv_end"
  param {
    lr_mult: 1
    decay_mult: 1
  }
  param {
    lr_mult: 2
    decay_mult: 0
  }
  convolution_param {
    num_output: 256
    pad: 0
    kernel_size: 1
    stride: 1
    weight_filler {
      type: "msra"
    }
    bias_filler {
      type: "constant"
      value: 0
    }
  }
}
layer {
  name: "map64_107_eltsum"
  type: "Eltwise"
  bottom: "map64_106_eltsum"
  bottom: "map64_107_conv_end"
  top: "map64_107_eltsum"
  eltwise_param {
    operation: SUM
  }
}
layer {
  name: "map64_108_bn_pre"
  type: "BatchNorm"
  bottom: "map64_107_eltsum"
  top: "map64_108_bn_pre"
  param {
    lr_mult: 0
    decay_mult: 0
  }
  param {
    lr_mult: 0
    decay_mult: 0
  }
  param {
    lr_mult: 0
    decay_mult: 0
  }
  include {
    phase: TRAIN
  }
  batch_norm_param {
    use_global_stats: false
  }
}
layer {
  name: "map64_108_bn_pre"
  type: "BatchNorm"
  bottom: "map64_107_eltsum"
  top: "map64_108_bn_pre"
  param {
    lr_mult: 0
    decay_mult: 0
  }
  param {
    lr_mult: 0
    decay_mult: 0
  }
  param {
    lr_mult: 0
    decay_mult: 0
  }
  include {
    phase: TEST
  }
  batch_norm_param {
    use_global_stats: true
  }
}
layer {
  name: "map64_108_pre_scale"
  type: "Scale"
  bottom: "map64_108_bn_pre"
  top: "map64_108_bn_pre"
  scale_param {
    bias_term: true
  }
}
layer {
  name: "map64_108_pre_relu"
  type: "ReLU"
  bottom: "map64_108_bn_pre"
  top: "map64_108_bn_pre"
}
layer {
  name: "map64_108_conv1"
  type: "Convolution"
  bottom: "map64_108_bn_pre"
  top: "map64_108_conv1"
  param {
    lr_mult: 1
    decay_mult: 1
  }
  param {
    lr_mult: 2
    decay_mult: 0
  }
  convolution_param {
    num_output: 64
    pad: 0
    kernel_size: 1
    stride: 1
    weight_filler {
      type: "msra"
    }
    bias_filler {
      type: "constant"
      value: 0
    }
  }
}
layer {
  name: "map64_108_bn1"
  type: "BatchNorm"
  bottom: "map64_108_conv1"
  top: "map64_108_conv1"
  param {
    lr_mult: 0
    decay_mult: 0
  }
  param {
    lr_mult: 0
    decay_mult: 0
  }
  param {
    lr_mult: 0
    decay_mult: 0
  }
  include {
    phase: TRAIN
  }
  batch_norm_param {
    use_global_stats: false
  }
}
layer {
  name: "map64_108_bn1"
  type: "BatchNorm"
  bottom: "map64_108_conv1"
  top: "map64_108_conv1"
  param {
    lr_mult: 0
    decay_mult: 0
  }
  param {
    lr_mult: 0
    decay_mult: 0
  }
  param {
    lr_mult: 0
    decay_mult: 0
  }
  include {
    phase: TEST
  }
  batch_norm_param {
    use_global_stats: true
  }
}
layer {
  name: "map64_108_scale1"
  type: "Scale"
  bottom: "map64_108_conv1"
  top: "map64_108_conv1"
  scale_param {
    bias_term: true
  }
}
layer {
  name: "map64_108_relu1"
  type: "ReLU"
  bottom: "map64_108_conv1"
  top: "map64_108_conv1"
}
layer {
  name: "map64_108_conv2"
  type: "Convolution"
  bottom: "map64_108_conv1"
  top: "map64_108_conv2"
  param {
    lr_mult: 1
    decay_mult: 1
  }
  param {
    lr_mult: 2
    decay_mult: 0
  }
  convolution_param {
    num_output: 64
    pad: 1
    kernel_size: 3
    stride: 1
    weight_filler {
      type: "msra"
    }
    bias_filler {
      type: "constant"
      value: 0
    }
  }
}
layer {
  name: "map64_108_bn2"
  type: "BatchNorm"
  bottom: "map64_108_conv2"
  top: "map64_108_conv2"
  param {
    lr_mult: 0
    decay_mult: 0
  }
  param {
    lr_mult: 0
    decay_mult: 0
  }
  param {
    lr_mult: 0
    decay_mult: 0
  }
  include {
    phase: TRAIN
  }
  batch_norm_param {
    use_global_stats: false
  }
}
layer {
  name: "map64_108_bn2"
  type: "BatchNorm"
  bottom: "map64_108_conv2"
  top: "map64_108_conv2"
  param {
    lr_mult: 0
    decay_mult: 0
  }
  param {
    lr_mult: 0
    decay_mult: 0
  }
  param {
    lr_mult: 0
    decay_mult: 0
  }
  include {
    phase: TEST
  }
  batch_norm_param {
    use_global_stats: true
  }
}
layer {
  name: "map64_108_scale2"
  type: "Scale"
  bottom: "map64_108_conv2"
  top: "map64_108_conv2"
  scale_param {
    bias_term: true
  }
}
layer {
  name: "map64_108_relu2"
  type: "ReLU"
  bottom: "map64_108_conv2"
  top: "map64_108_conv2"
}
layer {
  name: "map64_108_conv_end"
  type: "Convolution"
  bottom: "map64_108_conv2"
  top: "map64_108_conv_end"
  param {
    lr_mult: 1
    decay_mult: 1
  }
  param {
    lr_mult: 2
    decay_mult: 0
  }
  convolution_param {
    num_output: 256
    pad: 0
    kernel_size: 1
    stride: 1
    weight_filler {
      type: "msra"
    }
    bias_filler {
      type: "constant"
      value: 0
    }
  }
}
layer {
  name: "map64_108_eltsum"
  type: "Eltwise"
  bottom: "map64_107_eltsum"
  bottom: "map64_108_conv_end"
  top: "map64_108_eltsum"
  eltwise_param {
    operation: SUM
  }
}
layer {
  name: "map64_109_bn_pre"
  type: "BatchNorm"
  bottom: "map64_108_eltsum"
  top: "map64_109_bn_pre"
  param {
    lr_mult: 0
    decay_mult: 0
  }
  param {
    lr_mult: 0
    decay_mult: 0
  }
  param {
    lr_mult: 0
    decay_mult: 0
  }
  include {
    phase: TRAIN
  }
  batch_norm_param {
    use_global_stats: false
  }
}
layer {
  name: "map64_109_bn_pre"
  type: "BatchNorm"
  bottom: "map64_108_eltsum"
  top: "map64_109_bn_pre"
  param {
    lr_mult: 0
    decay_mult: 0
  }
  param {
    lr_mult: 0
    decay_mult: 0
  }
  param {
    lr_mult: 0
    decay_mult: 0
  }
  include {
    phase: TEST
  }
  batch_norm_param {
    use_global_stats: true
  }
}
layer {
  name: "map64_109_pre_scale"
  type: "Scale"
  bottom: "map64_109_bn_pre"
  top: "map64_109_bn_pre"
  scale_param {
    bias_term: true
  }
}
layer {
  name: "map64_109_pre_relu"
  type: "ReLU"
  bottom: "map64_109_bn_pre"
  top: "map64_109_bn_pre"
}
layer {
  name: "map64_109_conv1"
  type: "Convolution"
  bottom: "map64_109_bn_pre"
  top: "map64_109_conv1"
  param {
    lr_mult: 1
    decay_mult: 1
  }
  param {
    lr_mult: 2
    decay_mult: 0
  }
  convolution_param {
    num_output: 64
    pad: 0
    kernel_size: 1
    stride: 1
    weight_filler {
      type: "msra"
    }
    bias_filler {
      type: "constant"
      value: 0
    }
  }
}
layer {
  name: "map64_109_bn1"
  type: "BatchNorm"
  bottom: "map64_109_conv1"
  top: "map64_109_conv1"
  param {
    lr_mult: 0
    decay_mult: 0
  }
  param {
    lr_mult: 0
    decay_mult: 0
  }
  param {
    lr_mult: 0
    decay_mult: 0
  }
  include {
    phase: TRAIN
  }
  batch_norm_param {
    use_global_stats: false
  }
}
layer {
  name: "map64_109_bn1"
  type: "BatchNorm"
  bottom: "map64_109_conv1"
  top: "map64_109_conv1"
  param {
    lr_mult: 0
    decay_mult: 0
  }
  param {
    lr_mult: 0
    decay_mult: 0
  }
  param {
    lr_mult: 0
    decay_mult: 0
  }
  include {
    phase: TEST
  }
  batch_norm_param {
    use_global_stats: true
  }
}
layer {
  name: "map64_109_scale1"
  type: "Scale"
  bottom: "map64_109_conv1"
  top: "map64_109_conv1"
  scale_param {
    bias_term: true
  }
}
layer {
  name: "map64_109_relu1"
  type: "ReLU"
  bottom: "map64_109_conv1"
  top: "map64_109_conv1"
}
layer {
  name: "map64_109_conv2"
  type: "Convolution"
  bottom: "map64_109_conv1"
  top: "map64_109_conv2"
  param {
    lr_mult: 1
    decay_mult: 1
  }
  param {
    lr_mult: 2
    decay_mult: 0
  }
  convolution_param {
    num_output: 64
    pad: 1
    kernel_size: 3
    stride: 1
    weight_filler {
      type: "msra"
    }
    bias_filler {
      type: "constant"
      value: 0
    }
  }
}
layer {
  name: "map64_109_bn2"
  type: "BatchNorm"
  bottom: "map64_109_conv2"
  top: "map64_109_conv2"
  param {
    lr_mult: 0
    decay_mult: 0
  }
  param {
    lr_mult: 0
    decay_mult: 0
  }
  param {
    lr_mult: 0
    decay_mult: 0
  }
  include {
    phase: TRAIN
  }
  batch_norm_param {
    use_global_stats: false
  }
}
layer {
  name: "map64_109_bn2"
  type: "BatchNorm"
  bottom: "map64_109_conv2"
  top: "map64_109_conv2"
  param {
    lr_mult: 0
    decay_mult: 0
  }
  param {
    lr_mult: 0
    decay_mult: 0
  }
  param {
    lr_mult: 0
    decay_mult: 0
  }
  include {
    phase: TEST
  }
  batch_norm_param {
    use_global_stats: true
  }
}
layer {
  name: "map64_109_scale2"
  type: "Scale"
  bottom: "map64_109_conv2"
  top: "map64_109_conv2"
  scale_param {
    bias_term: true
  }
}
layer {
  name: "map64_109_relu2"
  type: "ReLU"
  bottom: "map64_109_conv2"
  top: "map64_109_conv2"
}
layer {
  name: "map64_109_conv_end"
  type: "Convolution"
  bottom: "map64_109_conv2"
  top: "map64_109_conv_end"
  param {
    lr_mult: 1
    decay_mult: 1
  }
  param {
    lr_mult: 2
    decay_mult: 0
  }
  convolution_param {
    num_output: 256
    pad: 0
    kernel_size: 1
    stride: 1
    weight_filler {
      type: "msra"
    }
    bias_filler {
      type: "constant"
      value: 0
    }
  }
}
layer {
  name: "map64_109_eltsum"
  type: "Eltwise"
  bottom: "map64_108_eltsum"
  bottom: "map64_109_conv_end"
  top: "map64_109_eltsum"
  eltwise_param {
    operation: SUM
  }
}
layer {
  name: "map64_110_bn_pre"
  type: "BatchNorm"
  bottom: "map64_109_eltsum"
  top: "map64_110_bn_pre"
  param {
    lr_mult: 0
    decay_mult: 0
  }
  param {
    lr_mult: 0
    decay_mult: 0
  }
  param {
    lr_mult: 0
    decay_mult: 0
  }
  include {
    phase: TRAIN
  }
  batch_norm_param {
    use_global_stats: false
  }
}
layer {
  name: "map64_110_bn_pre"
  type: "BatchNorm"
  bottom: "map64_109_eltsum"
  top: "map64_110_bn_pre"
  param {
    lr_mult: 0
    decay_mult: 0
  }
  param {
    lr_mult: 0
    decay_mult: 0
  }
  param {
    lr_mult: 0
    decay_mult: 0
  }
  include {
    phase: TEST
  }
  batch_norm_param {
    use_global_stats: true
  }
}
layer {
  name: "map64_110_pre_scale"
  type: "Scale"
  bottom: "map64_110_bn_pre"
  top: "map64_110_bn_pre"
  scale_param {
    bias_term: true
  }
}
layer {
  name: "map64_110_pre_relu"
  type: "ReLU"
  bottom: "map64_110_bn_pre"
  top: "map64_110_bn_pre"
}
layer {
  name: "map64_110_conv1"
  type: "Convolution"
  bottom: "map64_110_bn_pre"
  top: "map64_110_conv1"
  param {
    lr_mult: 1
    decay_mult: 1
  }
  param {
    lr_mult: 2
    decay_mult: 0
  }
  convolution_param {
    num_output: 64
    pad: 0
    kernel_size: 1
    stride: 1
    weight_filler {
      type: "msra"
    }
    bias_filler {
      type: "constant"
      value: 0
    }
  }
}
layer {
  name: "map64_110_bn1"
  type: "BatchNorm"
  bottom: "map64_110_conv1"
  top: "map64_110_conv1"
  param {
    lr_mult: 0
    decay_mult: 0
  }
  param {
    lr_mult: 0
    decay_mult: 0
  }
  param {
    lr_mult: 0
    decay_mult: 0
  }
  include {
    phase: TRAIN
  }
  batch_norm_param {
    use_global_stats: false
  }
}
layer {
  name: "map64_110_bn1"
  type: "BatchNorm"
  bottom: "map64_110_conv1"
  top: "map64_110_conv1"
  param {
    lr_mult: 0
    decay_mult: 0
  }
  param {
    lr_mult: 0
    decay_mult: 0
  }
  param {
    lr_mult: 0
    decay_mult: 0
  }
  include {
    phase: TEST
  }
  batch_norm_param {
    use_global_stats: true
  }
}
layer {
  name: "map64_110_scale1"
  type: "Scale"
  bottom: "map64_110_conv1"
  top: "map64_110_conv1"
  scale_param {
    bias_term: true
  }
}
layer {
  name: "map64_110_relu1"
  type: "ReLU"
  bottom: "map64_110_conv1"
  top: "map64_110_conv1"
}
layer {
  name: "map64_110_conv2"
  type: "Convolution"
  bottom: "map64_110_conv1"
  top: "map64_110_conv2"
  param {
    lr_mult: 1
    decay_mult: 1
  }
  param {
    lr_mult: 2
    decay_mult: 0
  }
  convolution_param {
    num_output: 64
    pad: 1
    kernel_size: 3
    stride: 1
    weight_filler {
      type: "msra"
    }
    bias_filler {
      type: "constant"
      value: 0
    }
  }
}
layer {
  name: "map64_110_bn2"
  type: "BatchNorm"
  bottom: "map64_110_conv2"
  top: "map64_110_conv2"
  param {
    lr_mult: 0
    decay_mult: 0
  }
  param {
    lr_mult: 0
    decay_mult: 0
  }
  param {
    lr_mult: 0
    decay_mult: 0
  }
  include {
    phase: TRAIN
  }
  batch_norm_param {
    use_global_stats: false
  }
}
layer {
  name: "map64_110_bn2"
  type: "BatchNorm"
  bottom: "map64_110_conv2"
  top: "map64_110_conv2"
  param {
    lr_mult: 0
    decay_mult: 0
  }
  param {
    lr_mult: 0
    decay_mult: 0
  }
  param {
    lr_mult: 0
    decay_mult: 0
  }
  include {
    phase: TEST
  }
  batch_norm_param {
    use_global_stats: true
  }
}
layer {
  name: "map64_110_scale2"
  type: "Scale"
  bottom: "map64_110_conv2"
  top: "map64_110_conv2"
  scale_param {
    bias_term: true
  }
}
layer {
  name: "map64_110_relu2"
  type: "ReLU"
  bottom: "map64_110_conv2"
  top: "map64_110_conv2"
}
layer {
  name: "map64_110_conv_end"
  type: "Convolution"
  bottom: "map64_110_conv2"
  top: "map64_110_conv_end"
  param {
    lr_mult: 1
    decay_mult: 1
  }
  param {
    lr_mult: 2
    decay_mult: 0
  }
  convolution_param {
    num_output: 256
    pad: 0
    kernel_size: 1
    stride: 1
    weight_filler {
      type: "msra"
    }
    bias_filler {
      type: "constant"
      value: 0
    }
  }
}
layer {
  name: "map64_110_eltsum"
  type: "Eltwise"
  bottom: "map64_109_eltsum"
  bottom: "map64_110_conv_end"
  top: "map64_110_eltsum"
  eltwise_param {
    operation: SUM
  }
}
layer {
  name: "map64_111_bn_pre"
  type: "BatchNorm"
  bottom: "map64_110_eltsum"
  top: "map64_111_bn_pre"
  param {
    lr_mult: 0
    decay_mult: 0
  }
  param {
    lr_mult: 0
    decay_mult: 0
  }
  param {
    lr_mult: 0
    decay_mult: 0
  }
  include {
    phase: TRAIN
  }
  batch_norm_param {
    use_global_stats: false
  }
}
layer {
  name: "map64_111_bn_pre"
  type: "BatchNorm"
  bottom: "map64_110_eltsum"
  top: "map64_111_bn_pre"
  param {
    lr_mult: 0
    decay_mult: 0
  }
  param {
    lr_mult: 0
    decay_mult: 0
  }
  param {
    lr_mult: 0
    decay_mult: 0
  }
  include {
    phase: TEST
  }
  batch_norm_param {
    use_global_stats: true
  }
}
layer {
  name: "map64_111_pre_scale"
  type: "Scale"
  bottom: "map64_111_bn_pre"
  top: "map64_111_bn_pre"
  scale_param {
    bias_term: true
  }
}
layer {
  name: "map64_111_pre_relu"
  type: "ReLU"
  bottom: "map64_111_bn_pre"
  top: "map64_111_bn_pre"
}
layer {
  name: "map64_111_conv1"
  type: "Convolution"
  bottom: "map64_111_bn_pre"
  top: "map64_111_conv1"
  param {
    lr_mult: 1
    decay_mult: 1
  }
  param {
    lr_mult: 2
    decay_mult: 0
  }
  convolution_param {
    num_output: 64
    pad: 0
    kernel_size: 1
    stride: 1
    weight_filler {
      type: "msra"
    }
    bias_filler {
      type: "constant"
      value: 0
    }
  }
}
layer {
  name: "map64_111_bn1"
  type: "BatchNorm"
  bottom: "map64_111_conv1"
  top: "map64_111_conv1"
  param {
    lr_mult: 0
    decay_mult: 0
  }
  param {
    lr_mult: 0
    decay_mult: 0
  }
  param {
    lr_mult: 0
    decay_mult: 0
  }
  include {
    phase: TRAIN
  }
  batch_norm_param {
    use_global_stats: false
  }
}
layer {
  name: "map64_111_bn1"
  type: "BatchNorm"
  bottom: "map64_111_conv1"
  top: "map64_111_conv1"
  param {
    lr_mult: 0
    decay_mult: 0
  }
  param {
    lr_mult: 0
    decay_mult: 0
  }
  param {
    lr_mult: 0
    decay_mult: 0
  }
  include {
    phase: TEST
  }
  batch_norm_param {
    use_global_stats: true
  }
}
layer {
  name: "map64_111_scale1"
  type: "Scale"
  bottom: "map64_111_conv1"
  top: "map64_111_conv1"
  scale_param {
    bias_term: true
  }
}
layer {
  name: "map64_111_relu1"
  type: "ReLU"
  bottom: "map64_111_conv1"
  top: "map64_111_conv1"
}
layer {
  name: "map64_111_conv2"
  type: "Convolution"
  bottom: "map64_111_conv1"
  top: "map64_111_conv2"
  param {
    lr_mult: 1
    decay_mult: 1
  }
  param {
    lr_mult: 2
    decay_mult: 0
  }
  convolution_param {
    num_output: 64
    pad: 1
    kernel_size: 3
    stride: 1
    weight_filler {
      type: "msra"
    }
    bias_filler {
      type: "constant"
      value: 0
    }
  }
}
layer {
  name: "map64_111_bn2"
  type: "BatchNorm"
  bottom: "map64_111_conv2"
  top: "map64_111_conv2"
  param {
    lr_mult: 0
    decay_mult: 0
  }
  param {
    lr_mult: 0
    decay_mult: 0
  }
  param {
    lr_mult: 0
    decay_mult: 0
  }
  include {
    phase: TRAIN
  }
  batch_norm_param {
    use_global_stats: false
  }
}
layer {
  name: "map64_111_bn2"
  type: "BatchNorm"
  bottom: "map64_111_conv2"
  top: "map64_111_conv2"
  param {
    lr_mult: 0
    decay_mult: 0
  }
  param {
    lr_mult: 0
    decay_mult: 0
  }
  param {
    lr_mult: 0
    decay_mult: 0
  }
  include {
    phase: TEST
  }
  batch_norm_param {
    use_global_stats: true
  }
}
layer {
  name: "map64_111_scale2"
  type: "Scale"
  bottom: "map64_111_conv2"
  top: "map64_111_conv2"
  scale_param {
    bias_term: true
  }
}
layer {
  name: "map64_111_relu2"
  type: "ReLU"
  bottom: "map64_111_conv2"
  top: "map64_111_conv2"
}
layer {
  name: "map64_111_conv_end"
  type: "Convolution"
  bottom: "map64_111_conv2"
  top: "map64_111_conv_end"
  param {
    lr_mult: 1
    decay_mult: 1
  }
  param {
    lr_mult: 2
    decay_mult: 0
  }
  convolution_param {
    num_output: 256
    pad: 0
    kernel_size: 1
    stride: 1
    weight_filler {
      type: "msra"
    }
    bias_filler {
      type: "constant"
      value: 0
    }
  }
}
layer {
  name: "map64_111_eltsum"
  type: "Eltwise"
  bottom: "map64_110_eltsum"
  bottom: "map64_111_conv_end"
  top: "map64_111_eltsum"
  eltwise_param {
    operation: SUM
  }
}
layer {
  name: "BN_end"
  type: "BatchNorm"
  bottom: "map64_111_eltsum"
  top: "BN_end"
  param {
    lr_mult: 0
    decay_mult: 0
  }
  param {
    lr_mult: 0
    decay_mult: 0
  }
  param {
    lr_mult: 0
    decay_mult: 0
  }
  include {
    phase: TRAIN
  }
  batch_norm_param {
    use_global_stats: false
  }
}
layer {
  name: "BN_end"
  type: "BatchNorm"
  bottom: "map64_111_eltsum"
  top: "BN_end"
  param {
    lr_mult: 0
    decay_mult: 0
  }
  param {
    lr_mult: 0
    decay_mult: 0
  }
  param {
    lr_mult: 0
    decay_mult: 0
  }
  include {
    phase: TEST
  }
  batch_norm_param {
    use_global_stats: true
  }
}
layer {
  name: "scale_end"
  type: "Scale"
  bottom: "BN_end"
  top: "BN_end"
  scale_param {
    bias_term: true
  }
}
layer {
  name: "relu_end"
  type: "ReLU"
  bottom: "BN_end"
  top: "BN_end"
}
layer {
  name: "pool_global"
  type: "Pooling"
  bottom: "BN_end"
  top: "pool_global"
  pooling_param {
    pool: AVE
    global_pooling: true
  }
}
layer {
  name: "score"
  type: "InnerProduct"
  bottom: "pool_global"
  top: "score"
  param {
    lr_mult: 1
    decay_mult: 1
  }
  param {
    lr_mult: 2
    decay_mult: 0
  }
  inner_product_param {
    num_output: 10
    weight_filler {
      type: "gaussian"
      std: 0.01
    }
    bias_filler {
      type: "constant"
      value: 0
    }
  }
}
layer {
  name: "loss"
  type: "SoftmaxWithLoss"
  bottom: "score"
  bottom: "label"
  top: "loss"
}
layer {
  name: "acc"
  type: "Accuracy"
  bottom: "score"
  bottom: "label"
  top: "acc"
}
